Mandatory2/oblig2_assignment_rev3/unit_tests/GRU_weights.pt (torch_old, 12681 bytes, 9 tensors)

weight_u f4 [36, 24]
0	0xbd21c26b	-0.039492052
1	0xb9a9a46b	-0.00032356693
2	0xbd6a7224	-0.05723776
3	0x3dcd389f	0.10020565
4	0xbe6d82cb	-0.23194425
5	0xbe3f4d0c	-0.18681735
6	0x3d4b9704	0.049704567
7	0x3d28f248	0.041246682
8	0xbd2ecc37	-0.042675223
9	0xbe3f5e51	-0.18688323
10	0xbd1dfb45	-0.038569707
11	0xbd79ad7b	-0.06095646
12	0x3da6e9a3	0.081500314
13	0xbdaa1a02	-0.08305742
14	0xbd60ed7f	-0.054913994
15	0xbcb96a18	-0.022633597
16	0x3daf7864	0.085678846
17	0xbe3c308c	-0.18377894
18	0xbc51e311	-0.0128104845
19	0xbdd61d4d	-0.104548074
20	0x3c93c121	0.018036427
21	0x3e9a3cfd	0.30124655
22	0xbc0d4c75	-0.008624186
23	0xbd360ad5	-0.044443924
24	0x3e45e1c7	0.19324408
25	0xbc0e0992	-0.008669274
26	0x3ebe969c	0.3722428
27	0xbe95801b	-0.291993
28	0xbe551919	-0.20810355
29	0x3e78e3fc	0.24305719
30	0x3e1f3ae0	0.15549803
31	0x3c729504	0.014806036
32	0xbdc87c6f	-0.09789359
33	0x3ea15b03	0.3151475
34	0xbe29c563	-0.16579203
35	0xbdc0f26c	-0.09421238
36	0x3cc22edf	0.02370399
37	0x3e7f5de1	0.24938156
38	0x3e4b7029	0.19867004
39	0xbd198bab	-0.037486713
40	0xbdc2e7d7	-0.09516876
41	0xbd6512fd	-0.05592631
42	0x3e4b35ed	0.1984479
43	0xbe7b3f20	-0.24535799
44	0x3e83f0ed	0.2576975
45	0xbe26500c	-0.16241473
46	0x3db54fa5	0.088530816
47	0x3e13150b	0.14363496
48	0xbe3e1b7d	-0.18565173
49	0x3dacec05	0.08443455
50	0x3f04686b	0.5172183
51	0x3dc6c5b9	0.09705681
52	0xbe4e7961	-0.2016349
53	0xbe599d71	-0.21251465
54	0xbe6710e1	-0.22565033
55	0x3d1a2cc4	0.037640348
56	0x3dc9d309	0.09854705
57	0xbeba9664	-0.36442864
58	0x3dae8f78	0.08523458
59	0x3ca09a79	0.019604908
60	0x3ceaece9	0.02867742
61	0x3e60eb6b	0.21964805
62	0x3d8a37d9	0.06748933
63	0xbe21b72f	-0.15792535
64	0x3d293419	0.04130945
65	0xbe8c0e4c	-0.27354658
66	0xbd5df1cf	-0.054185685
67	0x3e9db017	0.30798408
68	0x3d08b5fb	0.033376675
69	0xbe34ef0f	-0.17669319
70	0xbebef014	-0.3729254
71	0xbe11d186	-0.14240083
72	0xbe83696a	-0.25666362
73	0xbe82d22a	-0.25550967
74	0xbede366d	-0.434009
75	0xbe40c4d4	-0.18825084
76	0x3bf2dff9	0.0074119535
77	0x3def55d0	0.11686289
78	0xbdcda501	-0.100412376
79	0x3d6a35e1	0.05718029
80	0xbd3ae783	-0.045630943
81	0xbe63eb80	-0.22257805
82	0xbe1d0cee	-0.15336964
83	0xbda23402	-0.07920076
84	0xbd2f6318	-0.042819113
85	0xbc70380d	-0.014661801
86	0x3d77ba15	0.060480196
87	0x3e46fe80	0.19433022
88	0x3e54047f	0.2070484
89	0x3dae6a65	0.08516387
90	0x3e6fb427	0.23408566
91	0x3d9019d5	0.07036177
92	0xbd730359	-0.059329364
93	0xbd809d1a	-0.06279965
94	0x3e6da7a9	0.23208489
95	0xbd961eb0	-0.07330072
96	0x3c089852	0.008337097
97	0xbe085f8c	-0.13317698
98	0x3bc6e09b	0.0060692555
99	0x3e45d58c	0.19319743
100	0xbe6ebf11	-0.23315074
101	0x3b8d728d	0.004316634
102	0x3e76fa08	0.24118817
103	0xbdc543f0	-0.09632099
104	0xbc1357fe	-0.008993147
105	0xbd863fbe	-0.065551266
106	0x3e27e89c	0.16397327
107	0xbc9ff93f	-0.01952803
108	0xbe3e8da4	-0.18608719
109	0xbe06b044	-0.13153177
110	0x3ce1e0ef	0.027573077
111	0xbc7e84f8	-0.015534632
112	0xbd71d571	-0.059041444
113	0xbb0b3ef7	-0.0021247247
114	0x3e233e29	0.15941681
115	0xbe03e26a	-0.12879339
116	0x3e7a2713	0.24428968
117	0x3e91e3f7	0.28494236
118	0xbd439c2c	-0.04775636
119	0xbd39ef5b	-0.045394283
120	0x3dd878bd	0.10569904
121	0x3e5395e9	0.20662655
122	0xbdf31963	-0.118700765
123	0x3d26ecfe	0.040753357
124	0xbda63a73	-0.08116617
125	0xbe1f2f42	-0.15545371
126	0xbc78b910	-0.015180841
127	0xbdfe67e1	-0.12422157
128	0x3e06feed	0.13183184
129	0xbc5bdbb0	-0.013419077
130	0xbdf16adf	-0.11787962
131	0xbe31df44	-0.17370325
132	0x3e1aa2ee	0.15101215
133	0xbda7c69c	-0.081921786
134	0xbd8b5271	-0.06802834
135	0x3e021c0f	0.12706016
136	0x3d6720c8	0.056427747
137	0xbe0d518a	-0.13800636
138	0x3da38f82	0.07986356
139	0x3d121f5a	0.03567443
140	0x3d3f0f07	0.04664519
141	0xbe5e7afc	-0.21726602
142	0x3e45e48c	0.19325465
143	0xbe76e534	-0.24110872
144	0xbe03a179	-0.12854566
145	0xbea12127	-0.31470606
146	0xbdb8f3c4	-0.090308696
147	0x3d50c4b7	0.050968852
148	0xbd41a398	-0.047275156
149	0x3d9a5e93	0.0753757
150	0x3e9602c1	0.29298976
151	0x3ed3c071	0.4135776
152	0xbe3146c4	-0.17312151
153	0x3cf01b53	0.029309904
154	0xbcd70d67	-0.026251508
155	0x3e35c02b	0.17749088
156	0x3e12de87	0.143427
157	0x3e53b15b	0.20673124
158	0x3c991983	0.018688923
159	0xbe41fac8	-0.18943322
160	0xbd90e52d	-0.07074962
161	0x3e1219ff	0.14267729
162	0xbe89dd51	-0.26926664
163	0xbdff18af	-0.1245588
164	0xbdc21835	-0.094772734
165	0x3e5948fd	0.21219249
166	0xbebac20c	-0.3647617
167	0x3db4cc38	0.08828014
168	0xbd1b781f	-0.037956353
169	0xbd087d83	-0.033322822
170	0x3e013d05	0.12620933
171	0xbd34182d	-0.04396837
172	0xbdbdb400	-0.09262848
173	0xba8c3073	-0.0010695591
174	0xbdb7ade7	-0.08968716
175	0xbea2f96b	-0.31830916
176	0xbd05188b	-0.03249411
177	0xbe13e611	-0.14443232
178	0x3c872d45	0.016501078
179	0xbd694688	-0.05695203
180	0xbe9b9073	-0.30383644
181	0x3d51e94c	0.05124788
182	0x3d6e141c	0.058124647
183	0xbe705b53	-0.23472337
184	0xbbe69fa5	-0.007038074
185	0xbdbdcc25	-0.09267453
186	0xbe787917	-0.24264942
187	0x3e3c95b8	0.18416488
188	0xbdc3404b	-0.09533747
189	0xbe63c994	-0.22244865
190	0xbdbc06cc	-0.09180984
191	0x3d05a165	0.03262462
192	0xbd808c78	-0.06276792
193	0xbcc8ea94	-0.024525918
194	0x3d4eba13	0.050470423
195	0x3cad4150	0.021149307
196	0xbd885eed	-0.06658731
197	0xbe46882d	-0.19387884
198	0xbdf14b43	-0.11781933
199	0xbda1aea9	-0.07894642
200	0xbea07e20	-0.31346226
201	0x3e5a4877	0.21316706
202	0xbdf95968	-0.12175256
203	0x3e07ebbc	0.1327352
204	0xbec262b3	-0.37965927
205	0x3dc4eb3d	0.09615181
206	0xbea95037	-0.33069012
207	0x3df01d38	0.11724323
208	0x3c6d665c	0.014489736
209	0xbb4e6ce5	-0.0031498012
210	0xbe4a3324	-0.19746071
211	0xbdd70031	-0.104980834
212	0x3ebbc1e3	0.3667136
213	0x3e788759	0.24270381
214	0x3dbea54f	0.09308874
215	0x3cc05b1f	0.02348095
216	0x3dc3e15b	0.095644675
217	0xbd9398b5	-0.07206861
218	0x3df236e5	0.118268766
219	0xbdee8a97	-0.11647528
220	0x3e8c5f6a	0.27416545
221	0x3df7462d	0.12073932
222	0x3d884dcd	0.06655464
223	0x3e997679	0.299732
224	0xbc380063	-0.011230561
225	0x3d5ed49b	0.054401975
226	0x3dc3af57	0.09554928
227	0x3d43a248	0.047762185
228	0x3e90d42b	0.2828687
229	0x3d3ac175	0.04559465
230	0x3d275b25	0.040858407
231	0xbd9fd424	-0.078041345
232	0x3e8a63c8	0.27029252
233	0xbeaea73d	-0.34111968
234	0x3e0468ab	0.12930553
235	0xbe0a82a2	-0.13526395
236	0xbe1f08cb	-0.15530698
237	0xbe1516ba	-0.14559451
238	0x3e8b7495	0.27237383
239	0x3ddf0810	0.1089021
240	0xbda8e461	-0.08246685
241	0xbd0505d3	-0.032476258
242	0x3d35bc59	0.044369075
243	0xbe87c10b	-0.26514468
244	0xbd870583	-0.06592848
245	0x3e435728	0.19076216
246	0x3dcf3b83	0.10118773
247	0x3e12758a	0.1430265
248	0xbd299194	-0.0413986
249	0xbe789b49	-0.24277987
250	0xbe93a342	-0.28835493
251	0x3c90bd34	0.017668344
252	0x3e0b4f5b	0.1360449
253	0x3e813fa0	0.25243855
254	0x3e9b0046	0.30273646
255	0xbe0573b1	-0.13032414

bias_u f4 [1, 24]
0	0x00000000	0.0
1	0x00000000	0.0
2	0x00000000	0.0
3	0x00000000	0.0
4	0x00000000	0.0
5	0x00000000	0.0
6	0x00000000	0.0
7	0x00000000	0.0
8	0x00000000	0.0
9	0x00000000	0.0
10	0x00000000	0.0
11	0x00000000	0.0
12	0x00000000	0.0
13	0x00000000	0.0
14	0x00000000	0.0
15	0x00000000	0.0
16	0x00000000	0.0
17	0x00000000	0.0
18	0x00000000	0.0
19	0x00000000	0.0
20	0x00000000	0.0
21	0x00000000	0.0
22	0x00000000	0.0
23	0x00000000	0.0

weight_r f4 [36, 24]
0	0x3c821b2a	0.015882093
1	0xbe2b1414	-0.16706878
2	0xbe9286e8	-0.2861855
3	0x3e05487d	0.13015933
4	0xbce45644	-0.027873166
5	0x3c22c0d5	0.00993367
6	0xbd6e18c0	-0.058129072
7	0xbd67e307	-0.056612995
8	0x3ea3d81c	0.32000816
9	0xbd95b6a2	-0.07310225
10	0x3e0978a7	0.13424931
11	0xbe12d2e3	-0.1433826
12	0x3e5703cf	0.20997547
13	0xba7ba0dd	-0.00095988606
14	0xbda70329	-0.081548996
15	0x3e59ede1	0.2128215
16	0xbe4f5d78	-0.20250499
17	0xbd76ccbb	-0.06025384
18	0xbd012657	-0.031530704
19	0xbdfe4e8d	-0.12417326
20	0x3dc1d0e7	0.09463673
21	0x3e588c35	0.21147235
22	0xbe9d57a4	-0.30730927
23	0xbd7b4560	-0.061345458
24	0xbde0d277	-0.10977643
25	0x3e7e3b8d	0.24827404
26	0xbd082a5f	-0.033243533
27	0xbe0306f9	-0.12795629
28	0x3dc8b268	0.09799653
29	0xbe2d7b45	-0.16941555
30	0xbd1dfdad	-0.038572002
31	0xbdbce6c1	-0.092237
32	0x3e573af0	0.21018577
33	0xbe863641	-0.26213267
34	0x3dcb7040	0.09933519
35	0x3e7c978d	0.24667187
36	0x3e26c8b1	0.16287495
37	0xbe65485d	-0.22390886
38	0xbce7dc6c	-0.028303348
39	0xbe134f75	-0.14385779
40	0xbe2f2e11	-0.17107417
41	0x3e806033	0.25073394
42	0x3df8c0c0	0.12146139
43	0xbc7dcf09	-0.015491256
44	0x3c3dfb5d	0.011595574
45	0x3cf6e393	0.030137813
46	0x3eae70e3	0.340705
47	0x3dafd758	0.085859954
48	0x3d02373e	0.031790964
49	0xbdb549f7	-0.08851998
50	0xbde7a011	-0.11309827
51	0xbdbeb821	-0.093124636
52	0xbced38bb	-0.028957715
53	0xbd8be04f	-0.06829893
54	0x3cc5be61	0.024138631
55	0xbd9cb97b	-0.07652565
56	0xbd73e5d0	-0.05954534
57	0x3d358225	0.04431357
58	0xbc17f329	-0.0092742825
59	0xbcbaa39c	-0.022783093
60	0xbe011794	-0.1260665
61	0xbd263743	-0.040580045
62	0xbe199e79	-0.15001859
63	0x3e176b1f	0.14786957
64	0xbe960b8f	-0.29305694
65	0xbda0ef6f	-0.07858168
66	0xbe684e2d	-0.22686072
67	0xbdc481ff	-0.09595107
68	0x3c91dec0	0.01780641
69	0x3dd3be39	0.103390165
70	0xbe4050f8	-0.18780887
71	0xbe9094fb	-0.28238663
72	0xbd9eeb29	-0.07759697
73	0xbca87c13	-0.020566976
74	0xbee9f804	-0.45697033
75	0xbdff9911	-0.12480367
76	0x3d7adc3c	0.061245188
77	0x3e12c353	0.14332323
78	0x3e9597fd	0.2921752
79	0x3e453b33	0.19260864
80	0xbe154c84	-0.1457997
81	0x3cec40dc	0.028839521
82	0x3d35d524	0.04439272
83	0x3e1e26bd	0.15444465
84	0xbdf3e987	-0.11909776
85	0xbe90e958	-0.28303027
86	0x3cc2ba18	0.023770377
87	0x3e24fbb5	0.16111644
88	0xbe3383f7	-0.1753081
89	0x3e348f8b	0.17632882
90	0x3d6ffa75	0.058588464
91	0xbe0d60a9	-0.13806404
92	0x3ddb4a1b	0.10707494
93	0x3d720db8	0.059095114
94	0xbe56804f	-0.20947383
95	0xbea38014	-0.31933653
96	0x3dab641d	0.083687045
97	0xbe3a80a0	-0.18213129
98	0x3e16975b	0.14706175
99	0xbdad98dd	-0.08476422
100	0xbda7b06f	-0.08187949
101	0xbdd0bff8	-0.10192865
102	0x3cdde6c3	0.027087575
103	0xbc5fbb4d	-0.013655496
104	0x3ea49bd4	0.32150137
105	0x3e3f7069	0.18695225
106	0x3e356de4	0.17717701
107	0x3d257e17	0.04040345
108	0x3e49533f	0.19660662
109	0x3def8d29	0.11696846
110	0x3d03ca72	0.03217549
111	0x3e3bebec	0.18351716
112	0xbdb5cb17	-0.08876627
113	0xbe2e2569	-0.17006458
114	0x3da9eeb7	0.08297484
115	0x3d89c5d9	0.067271896
116	0xbe1a635c	-0.15076965
117	0x3e70f179	0.23529615
118	0x3e1efe61	0.15526725
119	0x3dd8996c	0.10576138
120	0xbdb00bd3	-0.08596005
121	0xbd284ba9	-0.04108778
122	0x3d33cf57	0.043898907
123	0xbeb7f85c	-0.3593167
124	0xbdccca33	-0.09999504
125	0xbe19906d	-0.149965
126	0x3b88d39b	0.004175616
127	0xbcabde8f	-0.020980148
128	0x3dc97307	0.09836393
129	0xbdb0efc4	-0.08639482
130	0x3db7f900	0.0898304
131	0xbe4b26b1	-0.19838978
132	0xbe26c273	-0.16285114
133	0xbc5bfb83	-0.013426664
134	0xbda25ce1	-0.079278715
135	0x3ea52133	0.32251891
136	0xbd97e650	-0.074169755
137	0xbdb78745	-0.089613475
138	0xbc515218	-0.01277592
139	0xbe41d82d	-0.18930121
140	0x3e1d90fe	0.15387341
141	0xbe6c4020	-0.23071337
142	0x3ea9ef49	0.33190373
143	0x3db61f9d	0.088927485
144	0xbea223ea	-0.31668025
145	0xbd9a895f	-0.07545733
146	0xbe093a07	-0.13401042
147	0xbe27b115	-0.16376145
148	0x3de9fd41	0.114252575
149	0xbe68eebb	-0.22747318
150	0x3d77b894	0.06047876
151	0x3e0d6e08	0.13811505
152	0x3d185f98	0.03720054
153	0xbcf8f15f	-0.030388532
154	0x3e43b1c5	0.19110782
155	0xbcdadc1b	-0.026716283
156	0x3dcf9dd7	0.101375274
157	0xbe77c72b	-0.2419707
158	0x3e05973b	0.13045971
159	0xbd947eb1	-0.07250727
160	0x3e0214ec	0.12703294
161	0x3ebbb89f	0.36664292
162	0xbea2befb	-0.31786332
163	0x3e4adeab	0.19811504
164	0x3eddb6b9	0.4330347
165	0x3e5b63e3	0.21424823
166	0xbd82dfd7	-0.0639035
167	0x3e670e71	0.22564103
168	0x3da93652	0.08262314
169	0x3de5f8f7	0.11229127
170	0x3d6c3c49	0.05767468
171	0x3d940e39	0.07229275
172	0xbbc1f2c0	-0.0059188306
173	0xbd706e73	-0.058699083
174	0x3e58f7cd	0.21188278
175	0xbcfb7dad	-0.030699575
176	0x3e4f875f	0.20266484
177	0xbd1ff60f	-0.03905302
178	0xbd851761	-0.064986
179	0x3d74f20b	0.059801143
180	0x3e90445c	0.28177154
181	0xbcbee88c	-0.023304246
182	0xbe16ff71	-0.1474588
183	0xbde1b577	-0.1102094
184	0x3e945821	0.28973487
185	0xbd67a97f	-0.05655813
186	0xbe80a1c7	-0.25123426
187	0x3d098fad	0.033584286
188	0xbe6e4f74	-0.23272496
189	0xbdf8ed13	-0.12154593
190	0x3e1c7481	0.15278818
191	0x3e2e4bd5	0.17021115
192	0x3d475b7b	0.048671227
193	0xbc346123	-0.011009487
194	0xbe55b921	-0.20871402
195	0x3e265d15	0.16246445
196	0xbdb9f741	-0.09080363
197	0x3e82171b	0.25408253
198	0xbd96c85d	-0.07362435
199	0x3e8b29bb	0.27180275
200	0xbc4c07a0	-0.01245299
201	0x3e120af7	0.14261995
202	0xbe1e8f87	-0.15484439
203	0x3e2c4eb7	0.16826902
204	0x3dca551d	0.09879515
205	0xbe1fedbf	-0.15618037
206	0x3ca7b487	0.020471824
207	0x3e618850	0.22024655
208	0xbbc1c7f9	-0.005913731
209	0x3dd775fd	0.10520551
210	0xbd8f4129	-0.0699485
211	0x3c690509	0.014222392
212	0xbea41aff	-0.32051846
213	0xbcc37885	-0.02386118
214	0xbdb81f0d	-0.089902975
215	0xbe770bc5	-0.24125583
216	0xbe40c537	-0.18825231
217	0x3dab4eb9	0.083646245
218	0x3e02111f	0.12701844
219	0xbd77767c	-0.06041573
220	0xbe953bc2	-0.29147154
221	0xbd0435f6	-0.032278024
222	0x3e9c57b1	0.30535653
223	0x3e362927	0.17789136
224	0xbe815725	-0.25261799
225	0x3da63896	0.08116262
226	0x3e1bbbcd	0.15208359
227	0x3de316b7	0.11088317
228	0xbe25d860	-0.16195822
229	0x3d55c3b7	0.0521886
230	0xbe9732e0	-0.29531002
231	0xbe2888ef	-0.16458486
232	0xbda4b47e	-0.08042239
233	0xbe8eb41d	-0.2787179
234	0x3d2dfea0	0.042479157
235	0xbcca8478	-0.02472137
236	0xbe2a5acf	-0.16636203
237	0x3de5fdd3	0.11230054
238	0x3e54589f	0.20736931
239	0x3db1d911	0.0868398
240	0xbd3c04f1	-0.04590315
241	0x3e56ba6c	0.20969552
242	0x3d645664	0.05574645
243	0xbe148bb9	-0.14506425
244	0xbe4ddc50	-0.20103574
245	0x3cf99898	0.03046827
246	0x3d5c88e8	0.0538415
247	0xbe005a35	-0.12534411
248	0xbdf51770	-0.11967361
249	0xbc886eff	-0.01665449
250	0x3ea8a6fa	0.32939893
251	0xbbdd2c9d	-0.006749703
252	0x3d5785dc	0.052617893
253	0xbdaa7b1e	-0.08324264
254	0x3d3ff990	0.04686886
255	0x3ddd9a2f	0.10820424

bias_r f4 [1, 24]
0	0x00000000	0.0
1	0x00000000	0.0
2	0x00000000	0.0
3	0x00000000	0.0
4	0x00000000	0.0
5	0x00000000	0.0
6	0x00000000	0.0
7	0x00000000	0.0
8	0x00000000	0.0
9	0x00000000	0.0
10	0x00000000	0.0
11	0x00000000	0.0
12	0x00000000	0.0
13	0x00000000	0.0
14	0x00000000	0.0
15	0x00000000	0.0
16	0x00000000	0.0
17	0x00000000	0.0
18	0x00000000	0.0
19	0x00000000	0.0
20	0x00000000	0.0
21	0x00000000	0.0
22	0x00000000	0.0
23	0x00000000	0.0

weight f4 [36, 24]
0	0x3e8fd4b5	0.2809197
1	0x3c70d983	0.014700296
2	0x3cd32c94	0.025778092
3	0xbe98915b	-0.29798397
4	0x3e599a3d	0.21250243
5	0xbe98e7b1	-0.29864267
6	0xbe6ce51f	-0.23134278
7	0xbe011b3f	-0.1260805
8	0xbdf85f70	-0.12127578
9	0x3eb66d80	0.35630417
10	0xbd556531	-0.052098457
11	0x3cce5d3d	0.025190944
12	0x3e2b84ff	0.16749953
13	0xbe0c6cff	-0.13713454
14	0x3e3d08dd	0.18460412
15	0x3da74f05	0.08169369
16	0xbe27ae5f	-0.16375111
17	0xbd24d6fa	-0.04024408
18	0x3c8b045b	0.01696985
19	0xbe8720a1	-0.2639208
20	0x3caf5994	0.021405019
21	0x3d6d9d4c	0.058011338
22	0x3d61a7b7	0.055091586
23	0x3d4930a4	0.049118653
24	0xbb3b1a5d	-0.002854965
25	0x3d9be2d8	0.076116264
26	0x3eb03c1f	0.3442087
27	0x3e536043	0.2064219
28	0x3de2802d	0.11059604
29	0xbe0d32fd	-0.13788982
30	0x3d6738d3	0.056450676
31	0x3dd8fa71	0.10594643
32	0xbe045800	-0.12924194
33	0xbd740d6f	-0.059583124
34	0xbe36cc43	-0.17851357
35	0xbd561915	-0.052270014
36	0xbdf5d01b	-0.120025836
37	0x3ead8b9d	0.3389558
38	0xbe64e994	-0.22354728
39	0xbd9297a1	-0.07157827
40	0x3d6dabfb	0.05802534
41	0x3e14eadb	0.14542715
42	0xbd57c845	-0.052681226
43	0x3d35f5a8	0.04442373
44	0xbe4b8c23	-0.19877677
45	0xbc8de57a	-0.017321337
46	0xbd68cccc	-0.056835935
47	0xbe5c57df	-0.21517895
48	0x3e94d061	0.2906523
49	0x3dd7357f	0.105082504
50	0x3d439a43	0.047754537
51	0x3e114573	0.14186649
52	0x3ed6865f	0.41899392
53	0x3cb59a49	0.022168295
54	0xbdcb4933	-0.09926071
55	0xbdd70afd	-0.10500143
56	0x3e10e380	0.14149284
57	0x3c08297f	0.008310675
58	0x3d3f79a4	0.046746865
59	0xbdafffd4	-0.08593717
60	0x3da34e89	0.07973964
61	0x3e8331f3	0.25624046
62	0xbe09372b	-0.13399951
63	0x3e10d495	0.14143594
64	0xbe9947f0	-0.29937696
65	0x3c71c9c9	0.014757582
66	0x3e324d80	0.17412376
67	0x3aea4239	0.0017872519
68	0x3d1ef14f	0.03880435
69	0xbeb29615	-0.34880129
70	0x3eb7e528	0.3591702
71	0x3e551eb5	0.20812495
72	0x3dfaa964	0.1223934
73	0xbe968dcb	-0.29405054
74	0xbd03e697	-0.03220233
75	0xbdeb4b90	-0.11489022
76	0x3d844abd	0.06459568
77	0x3dbe7200	0.092990875
78	0x3d4b58bf	0.04964518
79	0xbcc47771	-0.023982735
80	0xbe337a97	-0.17527233
81	0x3e2dcf60	0.16973639
82	0xbe31a983	-0.1734982
83	0xbe8f3afb	-0.27974686
84	0xbd153bef	-0.03643411
85	0xbe08dfc9	-0.13366617
86	0xbdf2e230	-0.11859548
87	0x3e246895	0.1605552
88	0xbe29ec25	-0.16593988
89	0xbe231e34	-0.1592949
90	0x3e19109d	0.14947744
91	0x3df8bb1f	0.121450655
92	0xbec1611c	-0.377694
93	0x3e1570fd	0.14593883
94	0x3e3cc26b	0.1843354
95	0xbda3b579	-0.079935975
96	0xbe307611	-0.17232539
97	0xbd11bdb7	-0.035581317
98	0xbe0a0a7d	-0.13480563
99	0xbe864dbf	-0.2623119
100	0x3e0831ff	0.13300322
101	0x3d9e0045	0.07714895
102	0xbe2015ab	-0.15633266
103	0xbdc92757	-0.098219566
104	0xbd6490d7	-0.055802193
105	0x3ba3f3c5	0.005003425
106	0xbe76fe88	-0.24120533
107	0xbe970a39	-0.29499987
108	0xbe2ee0c9	-0.17077936
109	0x3e7816e4	0.24227482
110	0xbdefc1b5	-0.117068686
111	0xbeb579f3	-0.35444602
112	0x3e663161	0.22479774
113	0x3e6b24bc	0.22963232
114	0xbe7a113b	-0.24420635
115	0xbc19f4d1	-0.009396748
116	0x3eaf4679	0.34233454
117	0xbe1510ea	-0.14557233
118	0x3dbbe2c8	0.091741145
119	0x3b927158	0.004469078
120	0x3d7a4b6c	0.061107084
121	0x3dcd17d5	0.10014311
122	0x3df366c9	0.11884839
123	0xbe974019	-0.2954109
124	0xbd78761f	-0.060659524
125	0x3e77e5ec	0.24208802
126	0xbe24fab5	-0.16111262
127	0xbdb67bc7	-0.089103274
128	0xbe841dc9	-0.25803974
129	0x3e0df653	0.13863496
130	0x3de3b4d0	0.111184716
131	0x3e14cb9d	0.14530797
132	0xbbf5d295	-0.00750191
133	0xbd5b64cc	-0.053562924
134	0xbe0557ce	-0.13021776
135	0x3e2adeb3	0.16686516
136	0x3c14b36d	0.009075982
137	0x3e0a9eb1	0.13537098
138	0x3e2490a9	0.16070808
139	0xbcf178c8	-0.029476538
140	0x3e95d5c9	0.29264668
141	0x3cc4e539	0.024035083
142	0x3d5dcd80	0.05415106
143	0xbdae55e9	-0.0851248
144	0x3d848199	0.06470031
145	0x3bb1850f	0.005417473
146	0xbe6e772b	-0.23287646
147	0xbc9b5064	-0.018959232
148	0x3cf02d63	0.029318517
149	0xbe70fed8	-0.23534715
150	0x3e1197e9	0.14218105
151	0x3b1bb1dd	0.0023757138
152	0x3cb56a73	0.022145486
153	0xbc932853	-0.017963564
154	0xbe9a5b43	-0.30147752
155	0x3b04e06c	0.0020275367
156	0xbdf3ea84	-0.11909965
157	0x3cdcedaf	0.026968805
158	0x3e5cd7e8	0.21566737
159	0x3d4cebfd	0.050029743
160	0x3e18ce3f	0.14922427
161	0xbdb77775	-0.089583315
162	0xbd29316f	-0.04130691
163	0xbe241787	-0.160246
164	0x3df32797	0.118727855
165	0xbdbe2a61	-0.09285427
166	0xbdaf6ae5	-0.085653104
167	0x3c846e05	0.016165743
168	0x3e9af899	0.3026779
169	0x3e03fa5b	0.12888472
170	0x3e2de985	0.16983612
171	0xbd9b1e58	-0.07574147
172	0x3e0a01e3	0.13477282
173	0x3bac72c4	0.0052627046
174	0x3d8df20c	0.069309324
175	0xbd14fc68	-0.036373526
176	0x3da2a027	0.07940703
177	0xbceccd6c	-0.028906547
178	0x3d11d1d9	0.035600517
179	0x3c4a678d	0.01235379
180	0x3cd40fe7	0.02588649
181	0x3dcfaf75	0.10140888
182	0xbd9fb7db	-0.077987395
183	0x3d3c2580	0.0459342
184	0xbcb2da64	-0.021832652
185	0x3d6acfe7	0.057327177
186	0x3ebb7c21	0.3661814
187	0x3d4a1df9	0.04934499
188	0xbd11ae6b	-0.03556673
189	0xbe12fda3	-0.14354567
190	0x3e28fbed	0.16502352
191	0xbe805ebd	-0.2507228
192	0x3db1e824	0.086868554
193	0xbe823581	-0.25431445
194	0x3ebc8ccc	0.3682617
195	0x3e3b85b4	0.18312722
196	0x3de75a31	0.112964995
197	0xbbf71ae3	-0.007541047
198	0xbe7056c4	-0.23470598
199	0xbd34fccc	-0.0441864
200	0x3e7dddb4	0.24791604
201	0xbe023cc9	-0.127185
202	0xbd4d0eb9	-0.05006287
203	0xbc357fc9	-0.01107783
204	0xbe3abff7	-0.18237291
205	0x3e2557b9	0.16146745
206	0xbc984365	-0.018586824
207	0x3e6358c4	0.2220183
208	0x3d9b6a7f	0.07588672
209	0xbc9354ca	-0.017984767
210	0x3e2c79bb	0.16843311
211	0x3df17864	0.11790541
212	0x3dfb8dfb	0.1228294
213	0x3d309ac0	0.04311633
214	0x3e2369e5	0.15958364
215	0xbcefbd1f	-0.029264985
216	0x3e2ce7af	0.16885255
217	0x3e61ea98	0.22062147
218	0x3e440c00	0.19145203
219	0x3dd66df4	0.10470191
220	0x3e773b1c	0.24143642
221	0xbd3c1e60	-0.045927405
222	0xbeef8364	-0.4677993
223	0x3e331a71	0.17490555
224	0xbd4a98ad	-0.04946201
225	0xbdf491eb	-0.11941894
226	0x3d4cd117	0.05000409
227	0x3e08b52d	0.13350363
228	0xbe18a6da	-0.14907399
229	0xbe519403	-0.20466618
230	0x3d1d304e	0.038376145
231	0xbdef66e9	-0.116895504
232	0x3cfa4acc	0.030553244
233	0x3ccc44ef	0.024935214
234	0xbeb4cf77	-0.35314533
235	0x3e3c60d1	0.18396308
236	0x3e2b8ea5	0.16753633
237	0xbd9fd673	-0.07804575
238	0xbd90009d	-0.07031367
239	0x3d617ff7	0.055053677
240	0x3e993555	0.29923502
241	0x3cd0e1e7	0.025498344
242	0xbe63895c	-0.22220367
243	0xbcda9f44	-0.026687272
244	0xbe700cf3	-0.2344244
245	0x3e16a8d1	0.14712836
246	0x3dc668e0	0.09687972
247	0x3cfb8811	0.03070453
248	0xbce854b9	-0.028360711
249	0x3d8f7895	0.07005421
250	0xbcec5eb9	-0.028853761
251	0xbde5ef68	-0.11227304
252	0x3e6f6278	0.23377407
253	0xbd8866c6	-0.066602275
254	0xbe6e1f78	-0.23254192
255	0xbe0ae7b1	-0.13564946

bias f4 [1, 24]
0	0x00000000	0.0
1	0x00000000	0.0
2	0x00000000	0.0
3	0x00000000	0.0
4	0x00000000	0.0
5	0x00000000	0.0
6	0x00000000	0.0
7	0x00000000	0.0
8	0x00000000	0.0
9	0x00000000	0.0
10	0x00000000	0.0
11	0x00000000	0.0
12	0x00000000	0.0
13	0x00000000	0.0
14	0x00000000	0.0
15	0x00000000	0.0
16	0x00000000	0.0
17	0x00000000	0.0
18	0x00000000	0.0
19	0x00000000	0.0
20	0x00000000	0.0
21	0x00000000	0.0
22	0x00000000	0.0
23	0x00000000	0.0

referenceOutput f4 [3, 24]
0	0xbee9b1c3	-0.45643434
1	0x3f840562	1.0314143
2	0xbf125f81	-0.5717698
3	0xbf4273b4	-0.759578
4	0xbe9d653c	-0.30741298
5	0xbfc43b38	-1.5330572
6	0xbf11fc7c	-0.57025886
7	0xbf52296a	-0.8209444
8	0xbf0b22a2	-0.5434972
9	0x3f9783b5	1.1837069
10	0x3d1309a3	0.035897862
11	0x3f36e4ec	0.7144306
12	0x3f98e70e	1.1945512
13	0xbf1d4437	-0.6143221
14	0xbed964ec	-0.4245981
15	0xbfa0e618	-1.2570219
16	0xbeab4053	-0.33447513
17	0x3e540339	0.20704354
18	0x3e405bda	0.18785039
19	0xbf008878	-0.50208235
20	0x3f3bc9f7	0.7335505
21	0x3f4cb162	0.79958165
22	0x3e955788	0.29168344
23	0xbeaafcb6	-0.33395928
24	0x3f25192a	0.6449152
25	0x3f895d51	1.0731603
26	0x3ee73c62	0.45163256
27	0x3efe5db8	0.49680877
28	0x3ef23bbe	0.47311205
29	0x3f712cf3	0.9420921
30	0xbe7b70b3	-0.2455471
31	0xbe5dc207	-0.21656047
32	0xbe6cd7a2	-0.23129132
33	0x3e8479d3	0.25874195
34	0xbd55f7b0	-0.052238166
35	0x3f557494	0.8338101
36	0x3d9c77ee	0.07640062
37	0xbe0f76cc	-0.14010161
38	0xbe1f1ef6	-0.15539154
39	0xbf50e634	-0.8160126
40	0x3e8f8c3a	0.28036672
41	0xbe5829d4	-0.21109706
42	0xbc9d0184	-0.019165762
43	0x3e166614	0.14687377
44	0x3fec0b1d	1.8440892
45	0x3f6580ef	0.8964986
46	0xbf0cc0ec	-0.54981875
47	0xbe2fb528	-0.1715895
48	0xbed639dd	-0.4184102
49	0x3fce2e37	1.6107854
50	0xbc5ac880	-0.013353467
51	0xbedb64ca	-0.42850333
52	0xbf17df7a	-0.59325373
53	0x3ef446f6	0.4771039
54	0x3ea78450	0.32718134
55	0x3e0c43f5	0.13697799
56	0xbf98991a	-1.1921723
57	0x3ed72c01	0.4202576
58	0x3f4d403e	0.8017615
59	0x3da9fb54	0.0829989
60	0x3e6990c7	0.22809134
61	0x3d75ca53	0.060007405
62	0x3eae233c	0.34011257
63	0x3d306d08	0.04307273
64	0x3e96fb9f	0.29488847
65	0x3e63eed8	0.2225908
66	0x3e00ed2e	0.12590477
67	0x3f0a3a5a	0.5399529
68	0x3f3b9bfd	0.73284894
69	0xbe10a4c8	-0.14125359
70	0xbf660281	-0.8984757
71	0x3cbf5589	0.023356216

x f4 [3, 12]
0	0x3fad1d8a	1.352464
1	0xbda77f77	-0.08178609
2	0x3f6cecf0	0.9254904
3	0x3f65667e	0.89609516
4	0x3f7f839d	0.998102
5	0x3f31aa4d	0.69400483
6	0xbf59ca9b	-0.85074776
7	0x3f94153e	1.1568983
8	0xbfbdd7a6	-1.4831436
9	0xbf95fd1a	-1.1717865
10	0x3ec89d97	0.39182732
11	0x3ef7b71c	0.4838189
12	0xbdeabdbb	-0.114619695
13	0x3f6f3987	0.93447155
14	0xbea7b163	-0.32752523
15	0xbf6cdd41	-0.92525107
16	0x3f3cbcec	0.7372577
17	0x3d1a04fb	0.037602406
18	0xbf3b93a8	-0.7327218
19	0x3f7e223c	0.9927099
20	0x3f151990	0.5824213
21	0x3ebae9a4	0.3650638
22	0x3e040877	0.12893854
23	0xbe89ac4e	-0.2688927
24	0xbf825383	-1.0181736
25	0xbe5dc12b	-0.21655719
26	0xbf99c7f2	-1.2014143
27	0xbdcfa0a0	-0.10138059
28	0x3ebabc7c	0.36471927
29	0x3f1bdc87	0.60883373
30	0xbffdbe79	-1.9823753
31	0xbf73862d	-0.9512661
32	0x3f470dbd	0.7775534
33	0xbf2aaf63	-0.6667387
34	0x3f548902	0.8302156
35	0xbf439225	-0.76394874

h0 f4 [3, 24]
0	0xbfa3e447	-1.280404
1	0x3f8dba21	1.1072427
2	0x3d9c7687	0.07639795
3	0xbf66402e	-0.8994168
4	0xbf639369	-0.88896805
5	0xc010a973	-2.2603424
6	0xbf801466	-1.0006225
7	0xbf5ba73e	-0.85802066
8	0xbf3b5c24	-0.7318747
9	0x4014cefb	2.325133
10	0x3e6d76f9	0.23189916
11	0x3fa9917d	1.3247524
12	0x3fc57eef	1.5429362
13	0xbfb981cd	-1.4492737
14	0xbf000318	-0.5000472
15	0xbfe19138	-1.7622442
16	0xbd714d26	-0.058911465
17	0x3f5d2b95	0.86394626
18	0x3d107a9b	0.035273176
19	0xbe1c83f6	-0.15284714
20	0x3fac6e6b	1.3471197
21	0x3fc85c0b	1.5653089
22	0xbb857241	-0.004072458
23	0xbf41b1f9	-0.7566219
24	0x3f4a3270	0.7898321
25	0x3fb6ee43	1.4291462
26	0xbf25f8d6	-0.6483282
27	0x3f8fa2d4	1.1221566
28	0x3fb1aa57	1.3880109
29	0x3f9af30d	1.2105423
30	0xbe798cc9	-0.24370112
31	0xbe0b3e39	-0.13597955
32	0xbf8fa8f8	-1.122344
33	0x3f6abba1	0.9169255
34	0xbf69cb7f	-0.91326135
35	0x3f62460b	0.8838813
36	0x3eeb3932	0.45942074
37	0xbfc5f977	-1.5466756
38	0x3dfb2301	0.12262536
39	0xbfce3bc3	-1.6111988
40	0x3f6ffa08	0.9374089
41	0xbf257dd3	-0.6464512
42	0xbd6817c3	-0.056663286
43	0x3e5d99e4	0.21640736
44	0x401c8a86	2.4459548
45	0x3f9d9e3e	1.2313917
46	0xbf8ba0cc	-1.0908446
47	0x3f60074e	0.87511146
48	0xbe0139b6	-0.12619671
49	0x401d2753	2.4555252
50	0xbf849de6	-1.0360687
51	0xbf3fd265	-0.7493041
52	0xbf0d591a	-0.55214083
53	0x3e92c3b4	0.28664935
54	0x3f5263ff	0.8218383
55	0x3f3c0537	0.7344546
56	0xc01dcb8c	-2.4655485
57	0x3f312d45	0.692097
58	0x3fa4864a	1.2853482
59	0x3df815eb	0.121135555
60	0x3ec81acc	0.39082944
61	0x3dfa3514	0.12217155
62	0x3f4ea6f6	0.8072351
63	0x3ef26ecc	0.47350156
64	0x3ed36a8c	0.41292226
65	0x3e918aaf	0.2842612
66	0x3c468848	0.012117453
67	0x3f7b46f0	0.9815512
68	0x3f527079	0.8220287
69	0xbf5fe7e3	-0.87463206
70	0xbf8350e2	-1.0259058
71	0x3e706a35	0.23478015
