Mandatory2/oblig2_assignment_rev3/unit_tests/loss_fn_tensors.pt (torch_old, 264483 bytes, 2 tensors)

logits f4 [32, 20, 100]
-0.6526445 0.31976873 0.18075144 0.48594248 -0.33586943 0.21133381 -0.2804662 -0.54898846
-0.14304292 -0.10173671 -0.9197321 0.08096925 -0.6029373 0.23274149 0.61863244 0.26056248
0.19120379 0.023552835 0.15899318 -0.027755395 -0.01706416 0.21075813 0.1919298 -0.43662852
0.1181498 0.4625029 -0.44165248 -0.43670112 -0.03162226 0.40022278 0.34747666 -0.3410459
-0.39446062 -0.12436974 0.25048563 0.22846267 0.20214239 0.1286603 0.25788563 -0.29975933
-0.40992302 -0.019100003 -0.14587095 0.15454142 -0.117822364 0.6987395 -0.013339251 -0.026092201
-0.17981005 -0.4502929 0.30578673 0.9224616 1.1696438 -0.47587863 -0.3084253 -0.13373232
0.6846839 0.12873146 0.1649214 -0.4763757 -0.19367975 0.11096303 0.29702532 0.23592366
-0.24412356 -0.49908245 -0.22470789 -0.45915842 0.19296417 -0.25901443 -0.021562316 -0.50770456
-0.027497895 -0.095549144 0.7680106 0.36982477 0.6376547 0.03314376 -0.66516376 0.030447125
-0.28145468 -0.24104649 0.12940414 -0.09207505 0.013444833 0.076833226 0.7047298 -0.15258023
0.19729541 0.21834953 -0.26817325 0.16944869 0.41515183 -0.083655365 0.3517575 -0.4162752
-0.12339656 -0.21590094 0.14639242 -0.071632266 -0.8544042 -0.24866612 -0.21740699 0.45658183
0.46273306 0.81851256 8.6289365e-05 -0.27003187 0.35811847 0.055826206 0.31474668 -0.1477746
0.35016415 -0.4634788 0.12846932 -0.3370192 0.35016233 -0.13864377 -0.06743547 0.3900047
0.08284697 -0.002786979 0.28170085 0.29932022 -0.30061713 0.20118518 -0.3325674 -0.16657355
0.081286654 -0.05987318 -0.1548497 -0.11710034 0.33520824 0.84958005 -0.15583996 0.8420286
0.22396488 0.24084932 0.46052143 0.5945455 -0.25030285 0.34819272 -0.064777546 -0.042015105
0.8098084 0.13367194 0.18082553 0.3374413 -0.40241265 0.57830423 0.33847454 0.25034493
0.5486389 -0.41644007 0.19992012 0.1120477 0.22314435 0.25842404 -0.0061802417 -0.19745024
0.1295264 0.2621799 -0.11827034 0.00020030886 0.26164168 -0.0930513 0.15935513 -0.39930683
0.24571885 0.37550628 0.68753 -0.2379793 -0.15081577 0.587585 0.34102184 0.06589385
0.12707376 -0.12982254 0.5259983 -0.1846109 0.24493226 -0.4018119 0.23515248 -0.3697458
-0.09587989 -0.15567511 0.013144866 -0.25563395 -0.019020177 -0.5182068 -0.5174154 0.22071691
0.12306337 -0.04992204 -0.52398896 -0.06142955 -0.22507203 -0.0004646927 -0.53562963 -0.24373972
-0.40911797 -0.2561975 -0.23790213 0.23425122 -0.015952714 0.19462869 -0.1458094 -0.39686185
0.19824661 -0.026057195 -0.5530463 -0.10233036 -0.30979457 0.0945445 -0.359507 0.41156673
-0.33202684 -0.37458152 -0.4137342 0.0487324 -0.37414598 -0.07573626 -0.2412708 -0.2795791
0.23847455 0.4282633 0.4584527 -0.39050782 -0.19071952 0.27311194 -0.39426035 -0.064417854
0.28239173 -0.22066517 -0.74049413 -0.20111106 0.32911962 -0.40488 0.2745921 -0.24247128
-0.18117364 0.44014966 0.087963045 0.72924805 -0.025888503 0.051741295 -0.31182134 -0.3561163
0.13600273 -0.1288814 -0.12974113 -0.3081122 0.5061079 -0.8031456 0.42389804 0.094857864
00000000: b613 27bf bab8 a33e e816 393e 74cd f83e
00000010: 14f7 abbe e467 583e 4499 8fbe 828a 0cbf
00000020: d879 12be 565b d0bd 9073 6bbf 35d3 a53d
00000030: 195a 1abf c953 6e3e b25e 1e3f 7268 853e
00000040: edca 433e e0f1 c03c 1ccf 223e 485f e3bc
00000050: 23ca 8bbc fbd0 573e 3f89 443e c68d dfbe
00000060: 86f8 f13d 2ecd ec3e 4620 e2be 4a97 dfbe
00000070: 5886 01bd 00ea cc3e 76e8 b13e 919d aebe
00000080: bef6 c9be 90b5 febd a73f 803e 1ef2 693e
00000090: 6afe 4e3e 87bf 033e 9609 843e 0e7a 99be
000000a0: 6ee1 d1be 9c77 9cbc 325f 15be 1b40 1e3e
000000b0: da4c f1bd 98e0 323f e08c 5abc 50bf d5bc
000000c0: 2020 38be ca8c e6be 1490 9c3e 7226 6c3f
000000d0: e3b6 953f 5da6 f3be ece9 9dbe 20f1 08be
000000e0: 7247 2f3f 2ed2 033e 28e1 283e 84e7 f3be
000000f0: fc53 46be 9640 e33d b413 983e f995 713e
00000100: 87fb 79be bc87 ffbe d319 66be d016 ebbe
00000110: 6698 453e 8a9d 84be 74a3 b0bc edf8 01bf
00000120: 4443 e1bc 45af c3bd 589c 443f ac59 bd3e
00000130: 573d 233f c0c1 073d 2c48 2abf 406c f93c
00000140: d41a 90be e4d4 76be 8582 043e d891 bcbd
00000150: b847 5c3c bd5a 9d3d 2c69 343f fe3d 1cbe
00000160: cf07 4a3e 0597 5f3e 014e 89be f583 2d3e
00000170: c88e d43e 8153 abbd 8f19 b43e 0622 d5be
00000180: 56b7 fcbd 2315 5dbe e5e7 153e f0b3 92bd
00000190: 3cba 5abf 55a2 7ebe f09f 5ebe 18c5 e93e
000001a0: 59eb ec3e 0a8a 513f 40f6 b438 9e41 8abe
000001b0: 4e5b b73e 05aa 643d 7a26 a13e 3a52 17be
000001c0: b748 b33e 184d edbe 768d 033e c88d acbe
000001d0: 7a48 b33e a2f8 0dbe 9c1b 8abd b2ae c73e
000001e0: acab a93d c0a5 36bb 183b 903e 8040 993e
000001f0: 7dea 99be 7d03 4e3e 4646 aabe 4292 2abe
00000200: 9e79 a63d 943d 75bd eb90 1ebe 4ed2 efbd
00000210: 6aa0 ab3e 147e 593f 8394 1fbe 308f 573f
00000220: 0d57 653e 34a1 763e 77c9 eb3e 2234 183f
00000230: b227 80be 5146 b23e 17aa 84bd 0818 2cbd
00000240: 9a4f 4f3f 4ce1 083e 542a 393e 1bc5 ac3e
00000250: 0809 cebe bf0b 143f 894c ad3e 362d 803e
00000260: 9973 0c3f a237 d5be dcb7 4c3e 4479 e53d
00000270: f47f 643e 2850 843e a083 cabb 6530 4abe
00000280: 92a2 043e 723c 863e b837 f2bd 000a 5239
00000290: e6f5 853e ae91 bebd fe2d 233e f271 ccbe
000002a0: b99d 7b3e 5c42 c03e f701 303f d8b0 73be
000002b0: 736f 1abe f86b 163f 6a9a ae3e 5bf3 863d
000002c0: a01f 023e 33f0 04be d3a7 063f a40a 3dbe
000002d0: 86cf 7a3e 4aba cdbe d0cb 703e 524f bdbe
000002e0: ad5c c4bd 4c69 1fbe 905d 573c 74e2 82be
000002f0: 34d0 9bbc 33a9 04bf 5675 04bf 9d03 623e
00000300: a608 fc3d 0e7b 4cbd 2424 06bf 8d9d 7bbd
00000310: 4879 66be 00a2 f3b9 061f 09bf e896 79be
00000320: e977 d1be 522c 83be 9e9c 73be 8ddf 6f3e
00000330: 44af 82bc be4c 473e 0f4f 15be 7a31 cbbe
00000340: 2901 4b3e e675 d5bc 7194 0dbf 9492 d1bd
00000350: 659d 9ebe 8ca0 c13d 4d11 b8be e0b8 d23e
00000360: 6cff a9be 26c9 bfbe f8d4 d3be a09b 473d
00000370: 1090 bfbe 9d1b 9bbd b10f 77be fe24 8fbe
00000380: ac32 743e 5445 db3e 50ba ea3e a4f0 c7be
00000390: fa4b 43be 54d5 8b3e 7edc c9be 82ed 83bd
000003a0: a695 903e 0df6 61be 0691 3dbf 0ff0 4dbe
000003b0: 5e82 a83e 6e4c cfbe 5697 8c3e 644a 78be
000003c0: 9585 39be 4c5b e13e f825 b43d 00b0 3a3f
000003d0: 2014 d4bc aeee 533d 0ca7 9fbe e054 b6be
000003e0: 4d44 0b3e 7cf9 03be dcda 04be e2c0 9dbe
000003f0: 4a90 013f f39a 4dbf 2a09 d93e d744 c23d

yWeights f4 [32, 20]
1.0 1.0 1.0 1.0 1.0 1.0 1.0 1.0
1.0 0.0 0.0 0.0 0.0 0.0 0.0 0.0
0.0 0.0 0.0 0.0 1.0 1.0 1.0 1.0
1.0 1.0 1.0 1.0 1.0 0.0 0.0 0.0
0.0 0.0 0.0 0.0 0.0 0.0 0.0 0.0
1.0 1.0 1.0 1.0 1.0 1.0 1.0 1.0
1.0 1.0 1.0 1.0 0.0 0.0 0.0 0.0
0.0 0.0 0.0 0.0 1.0 1.0 1.0 1.0
1.0 1.0 1.0 1.0 1.0 1.0 0.0 0.0
0.0 0.0 0.0 0.0 0.0 0.0 0.0 0.0
1.0 1.0 1.0 1.0 1.0 1.0 1.0 1.0
1.0 1.0 1.0 1.0 1.0 0.0 0.0 0.0
0.0 0.0 0.0 0.0 1.0 1.0 1.0 1.0
1.0 1.0 1.0 1.0 0.0 0.0 0.0 0.0
0.0 0.0 0.0 0.0 0.0 0.0 0.0 0.0
1.0 1.0 1.0 1.0 1.0 1.0 1.0 1.0
1.0 1.0 1.0 1.0 0.0 0.0 0.0 0.0
0.0 0.0 0.0 0.0 1.0 1.0 1.0 1.0
1.0 1.0 1.0 1.0 1.0 1.0 0.0 0.0
0.0 0.0 0.0 0.0 0.0 0.0 0.0 0.0
1.0 1.0 1.0 1.0 1.0 1.0 1.0 1.0
1.0 1.0 1.0 1.0 0.0 0.0 0.0 0.0
0.0 0.0 0.0 0.0 1.0 1.0 1.0 1.0
1.0 1.0 1.0 1.0 1.0 1.0 1.0 1.0
1.0 0.0 0.0 0.0 0.0 0.0 0.0 0.0
1.0 1.0 1.0 1.0 1.0 1.0 1.0 1.0
1.0 1.0 0.0 0.0 0.0 0.0 0.0 0.0
0.0 0.0 0.0 0.0 1.0 1.0 1.0 1.0
1.0 1.0 1.0 1.0 1.0 1.0 1.0 1.0
1.0 0.0 0.0 0.0 0.0 0.0 0.0 0.0
1.0 1.0 1.0 1.0 1.0 1.0 1.0 1.0
1.0 0.0 0.0 0.0 0.0 0.0 0.0 0.0
00000000: 0000 803f 0000 803f 0000 803f 0000 803f
00000010: 0000 803f 0000 803f 0000 803f 0000 803f
00000020: 0000 803f 0000 0000 0000 0000 0000 0000
00000030: 0000 0000 0000 0000 0000 0000 0000 0000
00000040: 0000 0000 0000 0000 0000 0000 0000 0000
00000050: 0000 803f 0000 803f 0000 803f 0000 803f
00000060: 0000 803f 0000 803f 0000 803f 0000 803f
00000070: 0000 803f 0000 0000 0000 0000 0000 0000
00000080: 0000 0000 0000 0000 0000 0000 0000 0000
00000090: 0000 0000 0000 0000 0000 0000 0000 0000
000000a0: 0000 803f 0000 803f 0000 803f 0000 803f
000000b0: 0000 803f 0000 803f 0000 803f 0000 803f
000000c0: 0000 803f 0000 803f 0000 803f 0000 803f
000000d0: 0000 0000 0000 0000 0000 0000 0000 0000
000000e0: 0000 0000 0000 0000 0000 0000 0000 0000
000000f0: 0000 803f 0000 803f 0000 803f 0000 803f
00000100: 0000 803f 0000 803f 0000 803f 0000 803f
00000110: 0000 803f 0000 803f 0000 0000 0000 0000
00000120: 0000 0000 0000 0000 0000 0000 0000 0000
00000130: 0000 0000 0000 0000 0000 0000 0000 0000
00000140: 0000 803f 0000 803f 0000 803f 0000 803f
00000150: 0000 803f 0000 803f 0000 803f 0000 803f
00000160: 0000 803f 0000 803f 0000 803f 0000 803f
00000170: 0000 803f 0000 0000 0000 0000 0000 0000
00000180: 0000 0000 0000 0000 0000 0000 0000 0000
00000190: 0000 803f 0000 803f 0000 803f 0000 803f
000001a0: 0000 803f 0000 803f 0000 803f 0000 803f
000001b0: 0000 0000 0000 0000 0000 0000 0000 0000
000001c0: 0000 0000 0000 0000 0000 0000 0000 0000
000001d0: 0000 0000 0000 0000 0000 0000 0000 0000
000001e0: 0000 803f 0000 803f 0000 803f 0000 803f
000001f0: 0000 803f 0000 803f 0000 803f 0000 803f
00000200: 0000 803f 0000 803f 0000 803f 0000 803f
00000210: 0000 0000 0000 0000 0000 0000 0000 0000
00000220: 0000 0000 0000 0000 0000 0000 0000 0000
00000230: 0000 803f 0000 803f 0000 803f 0000 803f
00000240: 0000 803f 0000 803f 0000 803f 0000 803f
00000250: 0000 803f 0000 803f 0000 0000 0000 0000
00000260: 0000 0000 0000 0000 0000 0000 0000 0000
00000270: 0000 0000 0000 0000 0000 0000 0000 0000
00000280: 0000 803f 0000 803f 0000 803f 0000 803f
00000290: 0000 803f 0000 803f 0000 803f 0000 803f
000002a0: 0000 803f 0000 803f 0000 803f 0000 803f
000002b0: 0000 0000 0000 0000 0000 0000 0000 0000
000002c0: 0000 0000 0000 0000 0000 0000 0000 0000
000002d0: 0000 803f 0000 803f 0000 803f 0000 803f
000002e0: 0000 803f 0000 803f 0000 803f 0000 803f
000002f0: 0000 803f 0000 803f 0000 803f 0000 803f
00000300: 0000 803f 0000 0000 0000 0000 0000 0000
00000310: 0000 0000 0000 0000 0000 0000 0000 0000
00000320: 0000 803f 0000 803f 0000 803f 0000 803f
00000330: 0000 803f 0000 803f 0000 803f 0000 803f
00000340: 0000 803f 0000 803f 0000 0000 0000 0000
00000350: 0000 0000 0000 0000 0000 0000 0000 0000
00000360: 0000 0000 0000 0000 0000 0000 0000 0000
00000370: 0000 803f 0000 803f 0000 803f 0000 803f
00000380: 0000 803f 0000 803f 0000 803f 0000 803f
00000390: 0000 803f 0000 803f 0000 803f 0000 803f
000003a0: 0000 803f 0000 0000 0000 0000 0000 0000
000003b0: 0000 0000 0000 0000 0000 0000 0000 0000
000003c0: 0000 803f 0000 803f 0000 803f 0000 803f
000003d0: 0000 803f 0000 803f 0000 803f 0000 803f
000003e0: 0000 803f 0000 0000 0000 0000 0000 0000
000003f0: 0000 0000 0000 0000 0000 0000 0000 0000
