Mandatory2/oblig2_assignment_rev3/unit_tests/RNN_tensors_is_train_True.pt (torch_old, 392450 bytes, 24 tensors)

weight f4 [100, 64]
0	0xbd42d0c8	-0.04756239
1	0x3c6a70f0	0.014309153
2	0xbd93b022	-0.07211329
3	0xbddd14a4	-0.107949525
4	0xbda2dbd2	-0.07952084
5	0xbceab460	-0.028650463
6	0xbdc64454	-0.09681001
7	0x3db68ee6	0.089139745
8	0xbd9100b4	-0.07080212
9	0xbd9ec2ae	-0.07751976
10	0xbb01ba00	-0.0019794703
11	0xbdf6cae2	-0.120504156
12	0x3d400720	0.046881795
13	0x3dd74b5e	0.10512422
14	0x3c18d3b0	0.009327814
15	0x3d1dd5d8	0.038534015
16	0x3dc4ebb2	0.09615268
17	0x3c0f0e30	0.00873141
18	0x3b41ff00	0.0029601455
19	0xbdbe401c	-0.09289572
20	0xbd1a448c	-0.037663028
21	0x3de34dd2	0.110988274
22	0x3de4ac44	0.111656696
23	0xbc2ec180	-0.010666251
24	0x3ce65ac8	0.02811946
25	0x3d02b9e0	0.031915545
26	0x3ce196d0	0.027537733
27	0xbc581830	-0.0131893605
28	0x3daa1878	0.08305448
29	0xbdbde302	-0.09271814
30	0x3dac36e2	0.084089056
31	0x3d93d75a	0.072188094
32	0x3d8a7cc6	0.0676208
33	0xbd5bb838	-0.05364248
34	0xbdac1112	-0.084016934
35	0x3d393a3c	0.045221552
36	0xbdfc433a	-0.1231751
37	0xbdde5724	-0.108564645
38	0x3d078e9c	0.033094987
39	0x3d6899d4	0.056787327
40	0x3cdc3d70	0.026884764
41	0xbd7ea310	-0.062167227
42	0xbdc699e4	-0.09697321
43	0xbc3602e0	-0.011109084
44	0xbdb2c094	-0.087281376
45	0x3def263a	0.11677213
46	0xbd7f751c	-0.062367544
47	0x3d62c880	0.055366993
48	0x3d29a890	0.04142052
49	0xbd2f84d8	-0.0428513
50	0x3bf2eec0	0.007413715
51	0x3def10c4	0.1167312
52	0xbdf2fda0	-0.118647814
53	0xbd6d7e34	-0.057981685
54	0xbc453310	-0.0120361
55	0x3d93b024	0.072113305
56	0x3df983c6	0.12183337
57	0x3cd8eb80	0.026479483
58	0xbcab7368	-0.020929053
59	0x3dac60d2	0.084169045
60	0x3d06e6c4	0.03293492
61	0xbd3879b0	-0.045037925
62	0x3d95eeb0	0.07320917
63	0xbda28256	-0.07935016
64	0xbd8596e4	-0.06522921
65	0xbae1bc80	-0.0017222315
66	0xbce7cd40	-0.028296113
67	0x3d05fc18	0.03271112
68	0x3d8bc302	0.06824304
69	0xbcf3f578	-0.029780135
70	0x3cd6ad98	0.026205823
71	0x3d354d84	0.044263378
72	0x3df93190	0.121676564
73	0xbd46b230	-0.048509777
74	0x3dcea95c	0.100908965
75	0xbc8c5f60	-0.017135322
76	0x3d81287c	0.0630655
77	0x3d90d64a	0.070721224
78	0xbd653670	-0.05596012
79	0x3c97b800	0.018520355
80	0xbb30a000	-0.0026950836
81	0x3dab0e78	0.08352369
82	0x3de1a228	0.11017257
83	0xbd444f14	-0.047926977
84	0xbddd685e	-0.10810922
85	0xbd7d1490	-0.061787188
86	0xbc86d680	-0.016459703
87	0x3cb85a40	0.022503972
88	0xbdf10eb8	-0.117703855
89	0xbddf0dd4	-0.108913094
90	0xbdc20ebe	-0.09475468
91	0x3d874ec0	0.06606817
92	0xbcb60090	-0.022217065
93	0x3d8b4fa6	0.06802301
94	0x3d784fbc	0.060622916
95	0x3de3950a	0.11112411
96	0xbd3ce14c	-0.046113297
97	0xbd21e428	-0.039524227
98	0xbbd82ee0	-0.006597385
99	0xbd3b57c0	-0.04573798
100	0xbda28474	-0.0793542
101	0xbdd5190a	-0.104051664
102	0xbde94c8e	-0.11391555
103	0xbade9d00	-0.0016984046
104	0x3dd40888	0.1035319
105	0x3d6a4318	0.05719289
106	0xbd807680	-0.06272602
107	0x3dd8e1c4	0.105899364
108	0x3d25e704	0.040503517
109	0xbd0e337c	-0.034717068
110	0xbd5d8bf0	-0.054088533
111	0x3c88a708	0.01668121
112	0x3dd1e254	0.10248247
113	0x3dddb23e	0.108250126
114	0xbdcfaa90	-0.10139954
115	0x3dd2e75c	0.102980345
116	0xbde68392	-0.11255564
117	0xbc8fb398	-0.017541692
118	0x3d15c054	0.03656037
119	0xbcbc4430	-0.022981733
120	0xbdadcbe2	-0.08486153
121	0x3d15ab24	0.036540166
122	0x3d9498f4	0.07255736
123	0xbd03fe34	-0.03222485
124	0xbc241320	-0.010014325
125	0xbdd569da	-0.1042058
126	0xbd2338e4	-0.039849177
127	0x3d1aca7c	0.03779076
128	0xbdbf45a0	-0.09339452
129	0x3de1cb6a	0.11025126
130	0x3dfebbee	0.124381885
131	0x3b331380	0.0027324855
132	0xbd9f685c	-0.07783577
133	0x3d5885d8	0.05286202
134	0xbda21790	-0.079146504
135	0x3dec5b5a	0.115408614
136	0x3d8dbc4c	0.069206804
137	0x3b40a9c0	0.0029398054
138	0xbde9d782	-0.11418058
139	0xbbd8a800	-0.006611824
140	0xbac9f480	-0.001540795
141	0x3dabbaf2	0.08385266
142	0x3d7c0708	0.061530143
143	0x3d236b74	0.039897397
144	0xbd8518a4	-0.064988405
145	0x3ddd368a	0.10801418
146	0x3cb62618	0.022234961
147	0x3deb3ee8	0.11486608
148	0x3d07176c	0.03298132
149	0xbcda35c0	-0.026636958
150	0xbd418844	-0.047249094
151	0xbd458c5c	-0.04822956
152	0xbc8dd740	-0.017314553
153	0x3de41892	0.11137499
154	0xbdf4203e	-0.11920212
155	0x3d86cde4	0.06582239
156	0xbd64e790	-0.055884898
157	0xbdb6bae0	-0.08922362
158	0x3d2c0c38	0.04200384
159	0xbc1acea0	-0.009448677
160	0x3da6e7e6	0.081497
161	0xbd81eca8	-0.06343967
162	0x3d89cc94	0.06728473
163	0xbdc3b916	-0.09556787
164	0xbde6a2a8	-0.11261493
165	0x3ccc5450	0.024942547
166	0x3d2dc9f4	0.042428926
167	0x3d6cf874	0.05785413
168	0x3dbe11c2	0.09280731
169	0xbdc6e4e8	-0.09711629
170	0xbd20cc90	-0.039257586
171	0xbd9f308e	-0.07772933
172	0xbdeeac10	-0.11653912
173	0x3db80a10	0.08986294
174	0x3dc63142	0.09677364
175	0xbc8fced0	-0.01755467
176	0x3dce9878	0.10087675
177	0x3c72b090	0.014812604
178	0x3daa3f38	0.08312839
179	0x3d0e82f8	0.03479287
180	0xbd9890cc	-0.07449493
181	0xbd4c84f0	-0.049931467
182	0xbdda80da	-0.10669108
183	0xbdab0052	-0.083496705
184	0x3dc921c8	0.098208964
185	0xbd7f8c54	-0.062389687
186	0x3dde696a	0.1085995
187	0x3d5409ac	0.051767036
188	0x3a944400	0.001131177
189	0x3d88f71c	0.066877574
190	0x3d0b6864	0.0340351
191	0xbd5504b0	-0.052006423
192	0x3d6bbf50	0.057555497
193	0xbdc9fed8	-0.09863061
194	0x3dec2c72	0.11531915
195	0x3deb0c3c	0.11476943
196	0x3d85ecae	0.06539284
197	0x3d73dcf0	0.059536874
198	0xbc990f08	-0.018683925
199	0x3d52e778	0.051490277
200	0xbd494d5c	-0.04914604
201	0xbd99760c	-0.07493219
202	0xbd0413b8	-0.032245368
203	0x3c379800	0.011205673
204	0xbd17d67c	-0.037069783
205	0x3c1a9ef0	0.009437308
206	0x3d85a610	0.065258145
207	0xbc8ac538	-0.016939744
208	0x3ded7dce	0.11596261
209	0xbdc8651c	-0.0978491
210	0x3beb84e0	0.007187471
211	0xbda3f3b2	-0.080054656
212	0xbde52808	-0.11189276
213	0xbce8df40	-0.028426766
214	0xbc7eba60	-0.015547365
215	0x3d8e6906	0.069536254
216	0xbdd23c4e	-0.102654085
217	0x3c62ddb0	0.0138468
218	0xbdeaab64	-0.114584714
219	0xbc9c6388	-0.019090429
220	0x3d22e08c	0.039764926
221	0x3df76276	0.12079327
222	0x3d2e04d4	0.042485073
223	0xbd10e2f0	-0.035372674
224	0x3d86ac38	0.06575817
225	0xbdae025c	-0.08496544
226	0xbda7e6ca	-0.081983164
227	0x3d2581a0	0.040406823
228	0x3d940c16	0.07228868
229	0x3da88abe	0.08229588
230	0xbbd85780	-0.0066022277
231	0xbd8f65c6	-0.070018336
232	0xbdc3dec6	-0.09563975
233	0x3dd0ef48	0.10201889
234	0x3ce02a28	0.027363852
235	0xbb1c3fc0	-0.002384171
236	0x3d9ee996	0.07759397
237	0xbd7a6764	-0.061133757
238	0xbdb10a64	-0.0864456
239	0xbdc1ca72	-0.094624415
240	0x3d84d756	0.064863846
241	0xbdfbc3a2	-0.122931734
242	0xbd25797c	-0.04039906
243	0x3cbb5f90	0.022872716
244	0xbd870d86	-0.06594376
245	0x3dd08ba8	0.10182887
246	0x3d24fd24	0.040280476
247	0x3da97aa4	0.08275345
248	0xbdabc352	-0.08386864
249	0xbcbc28b8	-0.022968635
250	0x3ca1ad90	0.019736081
251	0x3d253788	0.04033616
252	0x3cbd5508	0.023111835
253	0xbdbeed7c	-0.0932264
254	0xbdfc0cac	-0.123071045
255	0x3dd6f486	0.10495858

bias f4 [100]
0	0xbd651d0c	-0.055935904
1	0xbdb68052	-0.08911194
2	0xbcb79178	-0.022408232
3	0xbd1daca8	-0.038494736
4	0xbdeb14ca	-0.114785746
5	0x3da2769c	0.07932779
6	0x3d86a62e	0.06574665
7	0x3d8c9874	0.068650156
8	0x3daf2e22	0.08553721
9	0x3dd80e78	0.10549635
10	0xbdde5e62	-0.10857846
11	0x3ca87840	0.020565152
12	0xbcd9c4e0	-0.026583135
13	0xbd892f54	-0.0669848
14	0x3d0b3f20	0.033995748
15	0xbdd5f60a	-0.10447319
16	0x3d52f930	0.051507175
17	0xbae4e680	-0.0017463714
18	0xbd511f68	-0.051055342
19	0x3ce9b0b0	0.028526634
20	0x3dc77996	0.097399876
21	0x3da0d69c	0.078534335
22	0x3d31a9dc	0.04337488
23	0x3d0736c4	0.033011213
24	0x3d74c8c0	0.059761763
25	0x3d1ab5e4	0.03777112
26	0x3da06472	0.078316584
27	0x3dc29b82	0.09502317
28	0xbb9b5040	-0.004739791
29	0x3da041ca	0.07825048
30	0xbd2294bc	-0.039692625
31	0x3c8f0018	0.0174561
32	0x3dc67fa2	0.09692313
33	0x3dd7fb82	0.10546018
34	0xbda93fbc	-0.082641095
35	0xb9aba600	-0.0003273934
36	0xbd0f7888	-0.035027057
37	0xbc907b68	-0.01763697
38	0xbd26d600	-0.04073143
39	0xbd5f2754	-0.054480866
40	0x3c85dc10	0.016340286
41	0xbd735888	-0.0594106
42	0xbd9d53f8	-0.076820314
43	0xbcf42420	-0.029802382
44	0x3d68dcc0	0.05685115
45	0x3df4c1ae	0.11951004
46	0x3de63938	0.11241382
47	0x3ddec792	0.10877909
48	0xbda39952	-0.07988228
49	0x3c8f7ba0	0.017515004
50	0xbdf45524	-0.11930302
51	0xbd12bfdc	-0.035827503
52	0xbdb6cc5c	-0.08925697
53	0xbd81650a	-0.063181
54	0x3cdbe1e8	0.026841119
55	0xbdc59582	-0.09647657
56	0x3d98efae	0.0746759
57	0xbdbf1622	-0.093303934
58	0x3ccf4b98	0.0253046
59	0xbd872716	-0.06599252
60	0x3dccfcc6	0.1000915
61	0x3dc181fe	0.09448622
62	0x3d700050	0.058594048
63	0xbd379254	-0.044817284
64	0xbdd71394	-0.10501781
65	0x3dbc67e4	0.09199503
66	0xbdb9596e	-0.090502605
67	0xbdf87e1a	-0.12133427
68	0x3d751668	0.05983582
69	0x3db8e1d2	0.09027447
70	0x3cc61df8	0.024184212
71	0xbdb12d76	-0.08651249
72	0xbd630c24	-0.0554315
73	0x3dc983c2	0.09839584
74	0x3dca4440	0.09876299
75	0xbdefbd9c	-0.11706087
76	0xbd0a5750	-0.033774674
77	0xbbc812e0	-0.0061057657
78	0x3da1ace2	0.07894303
79	0x3dafeb6a	0.085898235
80	0x3d6ae1ec	0.057344362
81	0xbdff585c	-0.12468025
82	0x3d5f8d1c	0.05457793
83	0x3c8fdc10	0.017560989
84	0xbd13d528	-0.036091954
85	0xbddeb9b2	-0.10875262
86	0xbdb5d188	-0.088778555
87	0xbde7b5b8	-0.11313957
88	0xbcd07b10	-0.025449306
89	0x3d50b894	0.050957277
90	0x3db966b2	0.09052791
91	0xbdb6d080	-0.08926487
92	0xbdfbf498	-0.12302512
93	0x3c730090	0.014831677
94	0x3d8be014	0.06829849
95	0x3ca7d628	0.02048786
96	0x3dcf165a	0.10111685
97	0xbceeb808	-0.029140487
98	0x3c803a88	0.01565291
99	0x3d6fffc0	0.05859351

weight f4 [100, 32]
0	0xbca96c90	-0.02068165
1	0x400e44c9	2.2229483
2	0x3f4ddfdc	0.8041971
3	0x3fc6a97e	1.5520475
4	0xbea92d30	-0.33042288
5	0xbf9f75c8	-1.2457819
6	0x3c5ecda8	0.013598837
7	0xbec7cf53	-0.39025363
8	0xbf569077	-0.83814186
9	0xbd87c6ab	-0.0662969
10	0x3ebb98bb	0.36639962
11	0x40395d0e	2.8963046
12	0x3f5e027b	0.86722535
13	0x3fc13c39	1.5096503
14	0xbf8cd658	-1.1002913
15	0xbeb88741	-0.3604069
16	0xbfa82899	-1.313739
17	0x3f3c07db	0.73449486
18	0x3e0615af	0.13094209
19	0x3d820684	0.06348899
20	0x3e8eb2cc	0.27870786
21	0x3e09dae7	0.13462411
22	0x3cacd836	0.021099191
23	0x3f6e09f2	0.92983925
24	0xbf611cba	-0.8793446
25	0xbe2e329e	-0.17011496
26	0xbf39f7c1	-0.7264367
27	0x3eb38fc2	0.35070616
28	0xbfb08380	-1.3790131
29	0x3f206080	0.6264725
30	0xbf182d81	-0.59444433
31	0xbed9f207	-0.42567465
32	0xbe845411	-0.25845388
33	0x3fb083af	1.3790187
34	0x3f1b84e5	0.60749656
35	0xbf960fc2	-1.1723559
36	0xbf809c1c	-1.0047641
37	0xbf2e8ee1	-0.68186766
38	0x3d0ce40e	0.034397177
39	0xbf798e02	-0.9748231
40	0x3f934f24	1.1508527
41	0x3f7fef1b	0.9997422
42	0xbf7662b4	-0.9624436
43	0xbe8d84ee	-0.2764048
44	0xbff8d8eb	-1.9441198
45	0xbf59b4b6	-0.8504137
46	0x3fb04ecb	1.3774046
47	0xbf25bf4c	-0.6474502
48	0xbf19027c	-0.59769416
49	0xbe28dff0	-0.16491675
50	0x3faa45fb	1.3302606
51	0xbf9e56c4	-1.2370229
52	0xbf217913	-0.6307537
53	0xbea0c1ca	-0.3139785
54	0xbfba83c4	-1.4571462
55	0x3f0aff4a	0.5429579
56	0xbea514ff	-0.3224258
57	0xbe902d78	-0.2815969
58	0xbc0284e9	-0.007966259
59	0xbfcfc13e	-1.6230848
60	0x3f31c475	0.69440395
61	0x3f87c46d	1.0606819
62	0xbff51bca	-1.9149106
63	0xbe9fc211	-0.31202748
64	0xbf7b5c9b	-0.9818818
65	0x3f90e92d	1.132116
66	0x400d3e3a	2.206923
67	0xbe7d7f32	-0.24755552
68	0x3fb9d2ba	1.4517434
69	0xbe9e9cf8	-0.30979133
70	0xbfc9d3c9	-1.5767757
71	0xbeaa090e	-0.33210033
72	0x3ff5de49	1.9208461
73	0xbfa235ae	-1.2672632
74	0x3f65634c	0.8960464
75	0x3ff79656	1.9342754
76	0x3ced910d	0.02899983
77	0x400c4c15	2.1921437
78	0xbfbd37dd	-1.4782673
79	0xbee4b46f	-0.4466891
80	0x3f8ee0a6	1.1162307
81	0x3f9a55f8	1.2057486
82	0x3ee397c7	0.44451734
83	0xbdd407a0	-0.10353017
84	0xbf4d6fe7	-0.80248874
85	0x4052efbe	3.2958827
86	0xbfaa934b	-1.33262
87	0x3fd4266d	1.6574227
88	0xbf7d0c9b	-0.9884736
89	0xbf4a231c	-0.7895982
90	0xbdbee46d	-0.093209125
91	0xbe97fd1c	-0.29685295
92	0x3f34adf0	0.7057791
93	0x3ff90da4	1.9457288
94	0xbed0cf06	-0.40782946
95	0x3f5b624a	0.8569685
96	0x3f66ef75	0.9020913
97	0x4038a9c3	2.8853614
98	0xbfc5d274	-1.545485
99	0xbfa183f9	-1.26184
100	0x3e49b31b	0.1969723
101	0xbdc8cce7	-0.09804707
102	0xbec1cd37	-0.3785188
103	0x3f97df20	1.1864967
104	0x3fafa205	1.372132
105	0xbf3b4c6a	-0.73163474
106	0x3d78d1bc	0.060746893
107	0x3d1bfcd6	0.03808292
108	0xbfc9b72b	-1.5759023
109	0x3eba4026	0.36377066
110	0xbe62f5b1	-0.22164036
111	0xbe3684fb	-0.17824166
112	0x3ee1d14d	0.44104996
113	0x3ec14f85	0.3775598
114	0x3fac9c57	1.3485211
115	0xbe906a8d	-0.28206292
116	0xbef99db8	-0.48753142
117	0x3fc19a8d	1.512529
118	0xbfb971f3	-1.44879
119	0xbced0edf	-0.028937755
120	0x3fc4b99a	1.5369141
121	0xbf872ebd	-1.0561138
122	0xbf0a7e96	-0.54099405
123	0x3f85ebe0	1.0462608
124	0xbffec777	-1.9904622
125	0x3e00482f	0.12527536
126	0x3e8e6778	0.27813315
127	0xbfadbfb5	-1.3574129
128	0xbfa02713	-1.2511925
129	0x3f4e72d5	0.8064397
130	0x3e80af17	0.25133583
131	0x3f0e444e	0.55572975
132	0xbf586f93	-0.8454525
133	0xbf8c1a73	-1.0945572
134	0xbfa6b791	-1.302477
135	0xbc0e5175	-0.008686413
136	0x3ed312ea	0.41225368
137	0x3e9eb4e7	0.30997393
138	0xbf706551	-0.93904597
139	0xbe84f6bf	-0.25969502
140	0x3e3177b1	0.17330815
141	0x3f1da8c8	0.61585665
142	0x3f96fb37	1.1795415
143	0x3f3ba956	0.7330526
144	0xc00c817f	-2.1954038
145	0xbf6ac4cb	-0.9170653
146	0x3f22c9f4	0.63589406
147	0x3eb97088	0.36218667
148	0xbf9949a2	-1.1975596
149	0xbe92d9e2	-0.28681856
150	0xbf3c8f71	-0.73656374
151	0xbeca1a8a	-0.39473373
152	0xbf815ade	-1.0105855
153	0xbf4ddbf0	-0.80413723
154	0xbfbb58d7	-1.4636487
155	0x3ec1d215	0.37855592
156	0xbd9c4070	-0.07629478
157	0xbeaab687	-0.33342382
158	0xbf74eea5	-0.9567664
159	0xc0275e78	-2.615141
160	0x3f226fe0	0.6345196
161	0x3f9de9ac	1.2336936
162	0xc0115748	-2.2709522
163	0xbee6805e	-0.4501981
164	0x3ee70914	0.45124114
165	0xbf223c8f	-0.63373655
166	0xbe0e25eb	-0.13881652
167	0x3f5b4652	0.85654175
168	0xbe0b4fe1	-0.1360469
169	0x3e62fadb	0.22166006
170	0x3f5ea85a	0.86975634
171	0xbfb10abe	-1.3831403
172	0x3f15ceab	0.58518475
173	0x402ae648	2.6703053
174	0x3fcf00d4	1.6172128
175	0xbf44cbfb	-0.7687375
176	0xbf9fcfd5	-1.24853
177	0xbf7e3aea	-0.99308646
178	0x3ef95e1f	0.4870462
179	0x3fa07186	1.2534645
180	0x3f6e5ac6	0.9310726
181	0xbe9ed775	-0.31023756
182	0xbfcc5462	-1.5963252
183	0xbf0cc787	-0.54991955
184	0xbf934aae	-1.1507165
185	0xbfbf4a87	-1.4944619
186	0x3fb97258	1.448802
187	0x3fe9e6c0	1.8273544
188	0xbf24c38f	-0.643609
189	0xbf1a95ef	-0.6038503
190	0x3eb4e02f	0.35327289
191	0xbd9ae853	-0.075638436
192	0x3f784f6b	0.9699618
193	0x3f75d136	0.96022356
194	0xbf1d6a25	-0.6149009
195	0x3f023a1c	0.5086992
196	0xbfd512be	-1.6646345
197	0x3f16285e	0.58655345
198	0x3ff212e0	1.891201
199	0x3f2e323a	0.6804539
200	0xbf7e23d4	-0.9927342
201	0x3e912005	0.2834474
202	0xbf3474e8	-0.70490885
203	0x3f904902	1.127228
204	0xbf5f9986	-0.87343633
205	0xc00f0d6d	-2.2351944
206	0xbf8e2c4c	-1.1107268
207	0xbe3b7be1	-0.18308975
208	0x3f35bca6	0.7099098
209	0xbf033534	-0.51253057
210	0x3fa8a4b8	1.3175268
211	0xbeeb62dd	-0.45973864
212	0x3f748d6e	0.95528305
213	0x3eaad60e	0.33366436
214	0xbf089807	-0.53356975
215	0xbf96eaa6	-1.1790359
216	0xbf3f9348	-0.7483411
217	0x3ea8939a	0.3292511
218	0x3fb0efb3	1.382315
219	0xbf14caad	-0.5812176
220	0x3e010489	0.12599386
221	0xbf039817	-0.51403946
222	0xbeee0ed4	-0.46495688
223	0x3d95a8e2	0.073076025
224	0x3e954974	0.29157603
225	0x3f3dc47e	0.7412795
226	0x3ec33808	0.38128686
227	0x3f032b6a	0.5123812
228	0x3e9f511f	0.31116578
229	0xbe09ccb5	-0.13456996
230	0xbfcab1bd	-1.5835491
231	0xbf81256f	-1.0089549
232	0xbe91334f	-0.28359458
233	0x3ec52ab6	0.38509148
234	0x3fa5e288	1.2959757
235	0xbfbd9e9b	-1.4814028
236	0x3e6ac8bd	0.22928138
237	0xbf41322a	-0.7546717
238	0xbf3a84b5	-0.72858745
239	0x3f6dbfe5	0.9287093
240	0x3ea781d2	0.32716233
241	0xbd136d51	-0.035992924
242	0x3f2e235e	0.68022716
243	0xbf493f7d	-0.786125
244	0x3f28e156	0.65968835
245	0x3fe54e18	1.7914457
246	0x3f14e5cb	0.58163136
247	0xbfa5e918	-1.296176
248	0xbe2fd48c	-0.17170924
249	0x3ff8857b	1.9415735
250	0xbf37b086	-0.7175373
251	0xbfa69a9b	-1.3015932
252	0xbf9dbbd1	-1.2322942
253	0xbec125cb	-0.37724146
254	0xbf964a89	-1.1741496
255	0x3f042a5d	0.5162714

initial_hidden_state f4 [3, 4, 64]
0	0xbf4c3e7c	-0.79782844
1	0x3f79fb2b	0.97648877
2	0xbd65cf16	-0.056105696
3	0xbf6f5760	-0.934927
4	0x3f2fd138	0.6867862
5	0x3ec5d3b4	0.3863808
6	0x3d73a9b9	0.059488032
7	0x3f7ea319	0.9946762
8	0x3f746c1c	0.9547746
9	0xbf4b3a0b	-0.7938544
10	0x3f0c4e6e	0.54807174
11	0xbf1de225	-0.61673194
12	0xbe7af992	-0.24509266
13	0xbf6277ee	-0.8846425
14	0x3f4c7c5e	0.7987727
15	0xbecc7120	-0.39930058
16	0xbe36f236	-0.17865834
17	0xbf6918f7	-0.9105372
18	0x3f42bd30	0.7606993
19	0x3eab9a59	0.33516195
20	0xbeec2578	-0.46122336
21	0xbde2619c	-0.11053774
22	0x3ec2fecd	0.38085023
23	0x3efb7a2d	0.4911665
24	0x3ef66088	0.48120522
25	0x3e7c75dc	0.24654335
26	0x3f59faff	0.85148615
27	0x3f7d3ad7	0.9891791
28	0xbf125946	-0.5716747
29	0xbe641091	-0.22271945
30	0x3f578b69	0.841971
31	0xbf1be696	-0.6089872
32	0x3efcf869	0.49408272
33	0xbf1b03b6	-0.6055254
34	0x3f15fee6	0.5859207
35	0x3f13f5de	0.5779704
36	0xbf1371ce	-0.5759553
37	0xbf6c8634	-0.9239228
38	0xbe889304	-0.26674664
39	0x3f7db8fb	0.9911038
40	0xbe9efe47	-0.31053373
41	0xbf3fdc7e	-0.7494582
42	0x3f31ec57	0.6950125
43	0x3eb0acb8	0.34506774
44	0x3e2311f1	0.15924813
45	0x3ed91864	0.4240142
46	0xbed8b91a	-0.4232872
47	0xbf1f2557	-0.6216635
48	0x3eea6890	0.457829
49	0xbd17e8b2	-0.03708715
50	0x3f1935ad	0.5984753
51	0x3ecdc95e	0.40192693
52	0x3f593524	0.8484671
53	0xbe1d7498	-0.15376508
54	0x3f6aa728	0.9166131
55	0x3f49f4fa	0.7888943
56	0x3d3cefb7	0.046127047
57	0xbe8ec39c	-0.27883613
58	0x3f210939	0.629047
59	0x3f74c95e	0.9561976
60	0x3f58257c	0.84432197
61	0xbf4b0914	-0.7931073
62	0x3ed03e78	0.4067266
63	0xbf08e5c3	-0.5347559
64	0xbf7a5e29	-0.97799927
65	0x3f6d3828	0.9266381
66	0x3da06396	0.078314945
67	0xbf74e334	-0.95659184
68	0x3f7fc884	0.9991534
69	0x3ea409a6	0.3203861
70	0x3e8bbb1f	0.272912
71	0x3f7fdd15	0.9994672
72	0x3ec92add	0.39290515
73	0xbf7f6173	-0.9975807
74	0x3ed8b484	0.42325222
75	0x3f645715	0.89195377
76	0x3f76622b	0.9624354
77	0xbf644ef5	-0.8918298
78	0x3f590340	0.84770584
79	0x3f1d0841	0.6134072
80	0xbf61c71b	-0.88194436
81	0xbe1a8088	-0.15088093
82	0x3f0b4e9f	0.5441684
83	0xbf4909ee	-0.78530777
84	0xbf7fa549	-0.9986158
85	0xbebe9327	-0.37221643
86	0x3f733e07	0.9501652
87	0x3f7ff887	0.999886
88	0x3f7fcf21	0.9992543
89	0xbed7dff2	-0.42163044
90	0x3f7f9557	0.9983725
91	0x3f7f3439	0.9968906
92	0x3e2d8a29	0.16947235
93	0xbf34fbdc	-0.70696807
94	0x3f6bcc66	0.9210876
95	0xbe1ca741	-0.15298177
96	0xbf6b5746	-0.91930044
97	0xbf7d522c	-0.9895351
98	0x3f73e32d	0.9526852
99	0xbce64843	-0.028110629
100	0x3d25a82b	0.04044358
101	0xbf7eec84	-0.99579644
102	0xbf793d08	-0.9735875
103	0x3f7ffde6	0.99996793
104	0xbf6d143a	-0.9260899
105	0xbf63e3c0	-0.89019394
106	0xbf7f11bc	-0.99636436
107	0xbf43a0fa	-0.76417506
108	0xbf6242bc	-0.8838308
109	0xbf6f4123	-0.93458766
110	0x3f7c58f4	0.9857323
111	0xbd6d6c9a	-0.0579649
112	0xbf4a98c4	-0.7913935
113	0xbf367e6e	-0.71286666
114	0x3f6f0bc3	0.9337732
115	0x3f7f793e	0.99794376
116	0x3f7f5b61	0.9974881
117	0x3f46f6e4	0.77720475
118	0x3f48044a	0.78131545
119	0xbedfc6c9	-0.4370635
120	0x3d84e9d0	0.06489909
121	0x3f74fd69	0.95699173
122	0x3e1d850a	0.15382782
123	0x3f64dd80	0.8940048
124	0x3f691866	0.91052854
125	0xbf7e2f23	-0.99290675
126	0xbf4a86d2	-0.7911197
127	0xbf6e739b	-0.9314515
128	0xbf3de47d	-0.7417677
129	0x3ed3a082	0.41333395
130	0xbeb39470	-0.35074186
131	0xbe51c7c0	-0.20486355
132	0x3f524219	0.82132107
133	0xbe031ff5	-0.1280516
134	0x3de6bb2c	0.11266169
135	0x3f4f9fc9	0.8110319
136	0x3f348d06	0.70527685
137	0xbf6c6b1e	-0.9235095
138	0x3f343b62	0.7040311
139	0xbf52168d	-0.8206566
140	0xbeca408b	-0.39502367
141	0xbea9bee4	-0.3315345
142	0x3eca8643	0.3955556
143	0xbe05d659	-0.13070048
144	0xbf1a4941	-0.60268027
145	0x3f049299	0.5178619
146	0xbe93bb3e	-0.28853792
147	0x3e13cf9b	0.14434664
148	0x3f00e3a7	0.5034737
149	0xbd7622c6	-0.060091756
150	0x3f3a4487	0.72760814
151	0x3f312603	0.69198626
152	0x3f26ac99	0.65107113
153	0x3f493491	0.78595835
154	0x3f410d28	0.754107
155	0x3f74f045	0.9567912
156	0xbe563c51	-0.20921446
157	0x3f2b410b	0.6689612
158	0x3f57e84b	0.84338826
159	0x3ecd3c2d	0.40084973
160	0xbf0af747	-0.54283565
161	0xbf3bd146	-0.733662
162	0x3eda9819	0.42694166
163	0x3f070eba	0.52756846
164	0xbf022cb3	-0.50849456
165	0xbe91a771	-0.2844806
166	0xbf3f70d9	-0.74781567
167	0xbee08287	-0.43849584
168	0xbdc3eb9a	-0.09566422
169	0x3ed17159	0.4090679
170	0x3f21a392	0.63140213
171	0x3ec6435c	0.38723266
172	0x3df05748	0.117353976
173	0x3f0d81dc	0.55276275
174	0x3f279b5b	0.6547143
175	0x3cb1de99	0.021712588
176	0xbe8684ff	-0.26273343
177	0x3f51ac11	0.8190318
178	0x3c8938d3	0.016750729
179	0x3f5e30af	0.86793035
180	0xbe46cef3	-0.19414882
181	0x3e10b07d	0.14129825
182	0xbefdb7d0	-0.495543
183	0xbf183458	-0.5945487
184	0xbef6f3ab	-0.4823278
185	0x3f3367a7	0.70080036
186	0x3f2dae8c	0.6784446
187	0x3f2705ba	0.65243113
188	0x3eecc5b6	0.4624459
189	0xbede11dc	-0.43373
190	0x3f242661	0.6412106
191	0xbe9c3182	-0.3050652
192	0xbe373c94	-0.17894202
193	0x3f5bbda4	0.85836244
194	0x3e029a7f	0.12754248
195	0xbf116433	-0.56793517
196	0x3f2edc67	0.6830506
197	0x3eaa7b05	0.3329698
198	0xbf138ea5	-0.57639533
199	0xbd3edbec	-0.046596453
200	0xbf30c1b1	-0.6904555
201	0xbf435ee6	-0.7631668
202	0x3f2d01a7	0.67580646
203	0xbf49e989	-0.7887197
204	0xbed3b2d7	-0.4134738
205	0xbf17e363	-0.5933134
206	0x3e2c24a8	0.16810858
207	0x3f29cac6	0.6632503
208	0x3f2a2982	0.66469586
209	0xbf14c0fc	-0.5810697
210	0x3e8d6b8f	0.27621123
211	0xbf03b6f3	-0.51451033
212	0xbf33faf0	-0.70304775
213	0xbf019ade	-0.50626934
214	0x3f64c227	0.8935875
215	0xbd879584	-0.06620315
216	0x3f070edd	0.52757055
217	0xbdeaacbd	-0.114587285
218	0x3e9168d2	0.28400284
219	0x3f3a0154	0.72658277
220	0xbf2d059e	-0.67586696
221	0xbe81b77f	-0.2533531
222	0x3e1c930f	0.15290473
223	0x3d944f71	0.07241715
224	0x3ed075a5	0.40714756
225	0x3e5c689c	0.2152428
226	0xbe003a04	-0.12522131
227	0x3f172a29	0.59048706
228	0xbece75a8	-0.4032414
229	0xbce85c95	-0.028364459
230	0x3f6165f1	0.88046175
231	0x3efff5c5	0.49992195
232	0xbf1b34c6	-0.606274
233	0x3f60b6c6	0.8777889
234	0x3e0960f5	0.13415892
235	0x3db8764f	0.090069406
236	0xbf000b41	-0.5001717
237	0xbe97364d	-0.29533616
238	0x3d05adca	0.03263644
239	0xbee1e66a	-0.44121104
240	0x3e19d66d	0.15023203
241	0x3e4cfd4c	0.200185
242	0x3dfaabc5	0.12239794
243	0x3e037272	0.12836626
244	0x3ef7f730	0.48430777
245	0x3f657023	0.8962423
246	0xbd99e558	-0.07514447
247	0xbe18e9c2	-0.14932922
248	0x3e49d5bd	0.19710441
249	0xbccf9eac	-0.025344215
250	0xbf04482c	-0.51672626
251	0xbe570a37	-0.2099999
252	0x3f404cc8	0.7511716
253	0xbf3c5409	-0.7356573
254	0xbf0483ac	-0.51763415
255	0x3f1708f4	0.58998036

logits f4 [4, 30, 100]
0	0x3e53b197	0.20673214
1	0x3d090a7c	0.033457264
2	0x3db6cf64	0.08926275
3	0xbda1dcfc	-0.079034775
4	0x3a832240	0.0010004714
5	0x3da1748f	0.0788356
6	0x3e0338d8	0.12814653
7	0xbd9c18da	-0.076219276
8	0x3f04eeca	0.51926863
9	0x3de1527d	0.110020615
10	0xbe5fc48e	-0.21852323
11	0xbc984a64	-0.01859016
12	0xbdb80bef	-0.08986651
13	0xbe652090	-0.22375703
14	0xbe8b675b	-0.2722729
15	0x3ec497c0	0.38397026
16	0x3da0b8d1	0.07847751
17	0xbe70da03	-0.23520665
18	0xbcde7cb5	-0.027159074
19	0x3f0f8bd6	0.5607275
20	0x3d744d96	0.059644304
21	0x3e314b48	0.17313874
22	0xbe323c57	-0.1740583
23	0x3e0a94d6	0.13533339
24	0x3e833c94	0.25632155
25	0x3e36e90d	0.1786234
26	0x3ee5dae8	0.44893575
27	0xbdf35860	-0.118820906
28	0xbe2447c8	-0.16043007
29	0xbddb22b6	-0.1069998
30	0xbe59524c	-0.212228
31	0xbd1b1695	-0.037863333
32	0xbdda0c6c	-0.106469005
33	0x3f27def2	0.6557456
34	0x3eb79079	0.3585241
35	0xbde6ca85	-0.11269096
36	0xbe9b022a	-0.3027509
37	0xbea68826	-0.32525748
38	0x3e7bb82c	0.24581975
39	0x3e6f1adb	0.23350088
40	0xbdfe73d8	-0.12424439
41	0x3d94714a	0.07248171
42	0xbd22653e	-0.039647333
43	0x3cb6b382	0.022302393
44	0x3d2749e5	0.040841956
45	0xbe18b53f	-0.1491289
46	0x3ea8aa9b	0.32942662
47	0x3d079b94	0.033107355
48	0xbe608944	-0.21927363
49	0xbdaf6e8a	-0.085660055
50	0xbd98faa6	-0.074696824
51	0xbba745f0	-0.0051047727
52	0xbe8e54f8	-0.277992
53	0xbe3ab830	-0.18234324
54	0xbb7f9658	-0.0038999524
55	0xbe6b00c0	-0.22949505
56	0xbe1ee2a5	-0.15516146
57	0xbe45e3de	-0.19325206
58	0x3df059a2	0.11735846
59	0xbe9da22b	-0.30787787
60	0x3db4119c	0.08792421
61	0xbea920c8	-0.33032823
62	0x3e3bcd65	0.1834007
63	0xbe849558	-0.2589519
64	0xbdf40666	-0.11915283
65	0x3e93dafd	0.28878012
66	0x3c03f8a0	0.008054882
67	0x3e3943b3	0.18092231
68	0xbc9e1148	-0.01929535
69	0xbc0237e8	-0.007947899
70	0x3d053eda	0.032530643
71	0x3d89a46a	0.067208126
72	0xbe942e8a	-0.28941756
73	0x3c9db24c	0.019250058
74	0x3de99c9e	0.114068255
75	0x3bb31a10	0.0054657534
76	0xbf42f6d7	-0.761579
77	0x3f1753e4	0.5911238
78	0x3e9c5321	0.30532172
79	0xbceaae90	-0.028647691
80	0x3e3a1466	0.18171844
81	0xbf215d6a	-0.63033164
82	0x3c124f50	0.008930042
83	0xbeb56bca	-0.354338
84	0x3e0e04ef	0.1386907
85	0x3e7017eb	0.23446624
86	0xbe802e9c	-0.2503556
87	0xbe697f66	-0.22802505
88	0x3e953786	0.29143924
89	0x3dd25583	0.10270216
90	0x3d380613	0.044927668
91	0x3da1d8ca	0.07902677
92	0x3e7582a0	0.2397561
93	0x3e8e207e	0.27759165
94	0x3ea6104f	0.32434317
95	0x3e2dae06	0.16960916
96	0x3bbe7590	0.0058123544
97	0xbe50995a	-0.20370999
98	0x3d86e418	0.06586474
99	0x3ebf7d4d	0.37400284
100	0x3d608ce6	0.05482187
101	0xbd39b121	-0.04533494
102	0xbb4b7908	-0.0031047482
103	0xbd5eed68	-0.054425627
104	0xbd8224ca	-0.06354673
105	0x3d715741	0.058921102
106	0x3db017c8	0.08598286
107	0x3c0010e8	0.007816531
108	0x3ec97596	0.39347523
109	0x3debc183	0.11511519
110	0xbe05e6f0	-0.13076377
111	0x3d60e084	0.054901615
112	0xbd15004e	-0.036377244
113	0xbe7fce4e	-0.24981043
114	0xbe0d6f06	-0.13811883
115	0x3e333d35	0.17503817
116	0x3e1e117f	0.15436362
117	0xbe1b9636	-0.1519402
118	0xbd316ad3	-0.043314766
119	0x3eb4410f	0.35205886
120	0xbaf04680	-0.0018331558
121	0x3e04b2e9	0.12958874
122	0xbd08cf90	-0.033401072
123	0x3d140505	0.0361376
124	0x3e7815c5	0.24227054
125	0x3d80c8b4	0.06288281
126	0x3e9d3a7e	0.30708688
127	0xbd89076a	-0.06690867
128	0xbe2702db	-0.16309683
129	0xbda826e4	-0.08210543
130	0xbe0ed8c3	-0.13949876
131	0x3cc05a4b	0.023480555
132	0xbdb4b5c6	-0.08823733
133	0x3ee9456c	0.45560777
134	0x3df2bd62	0.11852528
135	0xbdc7df44	-0.097593814
136	0xbe52c9c4	-0.2058478
137	0xbe63a938	-0.2223252
138	0x3e2ba657	0.16762672
139	0x3ccac840	0.02475369
140	0x3bd53c00	0.0065073967
141	0x3db286a8	0.0871709
142	0xbda207c9	-0.07911641
143	0x3d8b938f	0.06815254
144	0x3d495a42	0.049158342
145	0xbe133975	-0.14377387
146	0x3e33501a	0.17511025
147	0x3e20a96a	0.15689626
148	0xbe45d81f	-0.19320725
149	0xbd956cd4	-0.07296148
150	0xbd92e71e	-0.07172988
151	0xbdab1812	-0.083542004
152	0xbe327d08	-0.17430508
153	0xbdf13158	-0.1177699
154	0xbbfa6520	-0.0076414496
155	0xbdca98c1	-0.09892417
156	0xbe2e7adf	-0.17039059
157	0xbda13f87	-0.07873445
158	0xbcd94a36	-0.026524644
159	0xbe7b041d	-0.24513288
160	0x3d9ca375	0.076483645
161	0xbe8ee0a2	-0.27905756
162	0x3e25771a	0.16158715
163	0xbe11f43c	-0.14253324
164	0xbd9da44f	-0.07697355
165	0x3e952b79	0.2913473
166	0xbc88a344	-0.016679414
167	0x3d948b66	0.07253151
168	0xbdc1697a	-0.09443946
169	0x3d96bb7c	0.073599786
170	0x3cb04231	0.021515938
171	0xbd59e299	-0.053194616
172	0xbe886edc	-0.2664708
173	0x3dc783d3	0.0974194
174	0x3db91863	0.090378545
175	0xbd0807f4	-0.03321071
176	0xbedfc1f6	-0.43702668
177	0x3edc21e4	0.42994606
178	0x3e93f02e	0.2889418
179	0xbc305840	-0.010763228
180	0x3e5ba0dd	0.21448083
181	0xbef45c5f	-0.47726724
182	0xbca0c06c	-0.019623004
183	0xbe5f5c76	-0.21812615
184	0xbd32319e	-0.04350435
185	0x3d7d4ee4	0.061842814
186	0xbdf2ae3b	-0.11849638
187	0xbe74d9a7	-0.23911153
188	0x3e13a01e	0.14416549
189	0x3d5e5c0b	0.054286998
190	0x3e703759	0.23458613
191	0x3db304b4	0.087411314
192	0x3d83d978	0.06437963
193	0x3e27d245	0.16388805
194	0x3e3bba8d	0.18332882
195	0x3e122178	0.1427058
196	0x3b7a2540	0.0038169175
197	0xbddef7ca	-0.10887106
198	0x3d7b28db	0.06131826
199	0x3e87b7d8	0.2650745
200	0xbc2245a8	-0.009904303
201	0xbdd34bcc	-0.103171915
202	0xbd5619da	-0.052270748
203	0xbd151c2c	-0.03640382
204	0xbde76491	-0.112984784
205	0x3d80c516	0.06287591
206	0x3d08036d	0.033206392
207	0x3d703202	0.05864144
208	0x3e7f2ba4	0.24918991
209	0x3dff6bba	0.12471719
210	0xbdcf6c3e	-0.101280674
211	0x3df481c4	0.11938813
212	0xbd1a9e47	-0.0377486
213	0xbe8006b9	-0.2500513
214	0xbd06aa62	-0.032877333
215	0x3d9e4bcc	0.07729301
216	0x3e163f60	0.14672613
217	0xbceecc2f	-0.029150097
218	0xbd042671	-0.032263223
219	0x3e4a75f5	0.1977156
220	0x3c0cb138	0.008587174
221	0x3e2b2f8e	0.1671736
222	0x3d85a12b	0.06524881
223	0xbd3bbd4e	-0.045834832
224	0x3e7fd036	0.2498177
225	0x3cb88e98	0.022528931
226	0x3e4bfca0	0.19920588
227	0xbcf54288	-0.029938951
228	0xbe207083	-0.1566792
229	0xbddedf7c	-0.1088247
230	0xbe1739cb	-0.1476814
231	0x3cfbcd96	0.03073768
232	0xbd2293f0	-0.039691865
233	0x3ebd902c	0.37024057
234	0x3d52240c	0.05130391
235	0xbd881ed7	-0.06646507
236	0xbe15963c	-0.14608091
237	0xbe0e36a2	-0.13888028
238	0x3df311f4	0.11868659
239	0xbd30e9e1	-0.043191794
240	0x3c81c195	0.015839377
241	0x3db6d826	0.08927946
242	0xbdf353c7	-0.11881214
243	0x3e0093be	0.12556359
244	0x3d4c3a84	0.049860492
245	0xbe059587	-0.13045321
246	0x3db8b017	0.090179615
247	0x3e61dc86	0.2205678
248	0xbdb03282	-0.086033836
249	0xbda8baab	-0.08238729
250	0xbd683548	-0.056691438
251	0xbd8ebfc8	-0.06970173
252	0xbde30a48	-0.11085945
253	0xbe027881	-0.12741281
254	0xbca7f9b0	-0.020504802
255	0xbd048296	-0.0323511

current_state f4 [3, 4, 64]
0	0x3ea6a597	0.3254821
1	0x3da9f0fe	0.08297919
2	0xbe952906	-0.2913286
3	0x3e1f0b68	0.15531695
4	0x3f40e132	0.7534362
5	0x3cfc1bff	0.030775068
6	0x3eaeb319	0.34121016
7	0x3e861c4b	0.2619346
8	0xbeaf13b7	-0.3419473
9	0x3ca24804	0.01980973
10	0x3d94fd95	0.072749294
11	0xbeb316e6	-0.34978408
12	0xbde3cdc7	-0.11123233
13	0xbf0d15ba	-0.5511128
14	0x3ca07224	0.019585676
15	0x3f195743	0.59898776
16	0xbf4f3c9e	-0.8095187
17	0x3e9af604	0.3026582
18	0x3de94824	0.11390713
19	0xbe171ef9	-0.14757909
20	0x3ec8f99c	0.39252937
21	0xbede9044	-0.4346944
22	0xbe88bc5d	-0.2670621
23	0x3ca348d6	0.019932192
24	0x3f57984d	0.8421677
25	0xbd1faa34	-0.038980678
26	0xbed49ecb	-0.415274
27	0x3ecdf7d9	0.40228155
28	0x3ee17684	0.44035733
29	0x3f2c28b6	0.6724962
30	0xbf0d3be5	-0.55169517
31	0x3e19c528	0.15016615
32	0x3ea4d16d	0.3219103
33	0xbe47e4f0	-0.19520926
34	0xbf3995f6	-0.7249445
35	0xbebca342	-0.36843306
36	0xbdbdc172	-0.092654124
37	0xbf070b4a	-0.527516
38	0xbf2410e9	-0.640883
39	0x3f00a5dd	0.5025309
40	0x3eb0e0eb	0.345466
41	0xbe82d0ec	-0.2555002
42	0xbf0c7695	-0.5486844
43	0x3d981416	0.07425706
44	0xbf45d5a0	-0.7727909
45	0x3e2723be	0.16322228
46	0x3ed6a13d	0.4191989
47	0x3da57e46	0.08080725
48	0xbf0bf47d	-0.54669935
49	0xbf3de17a	-0.74172175
50	0xbee2d732	-0.44304806
51	0x3f0ac264	0.54202867
52	0x3daa67c8	0.08320576
53	0xbf3157ea	-0.6927477
54	0x3ef0e18e	0.47047085
55	0x3ef28b0c	0.4737171
56	0x3f228df4	0.63497853
57	0x3ea09193	0.31361064
58	0xbe672e24	-0.22576195
59	0x3e6bc9da	0.23026219
60	0x3f3d7a4d	0.7401474
61	0x3dac8371	0.08423508
62	0xbd81de8e	-0.06341277
63	0x3eef8994	0.4678465
64	0x3ea682e2	0.3252173
65	0x3da192ef	0.078893535
66	0xbe96d367	-0.29458162
67	0x3e1e1ca6	0.15440616
68	0x3f40bf03	0.7529146
69	0x3cf941b4	0.030426838
70	0x3eaead5e	0.34116644
71	0x3e84d8b2	0.25946575
72	0xbeae6c42	-0.3406697
73	0x3ca01bad	0.019544447
74	0x3d7cd85f	0.061729785
75	0xbeb2a928	-0.3489468
76	0xbde41fea	-0.111388996
77	0xbf0cf9ae	-0.5506848
78	0x3cbd5970	0.023113936
79	0x3f197b3b	0.5995366
80	0xbf4f37c5	-0.8094447
81	0x3e9b9b08	0.30391717
82	0x3dea2692	0.11433138
83	0xbe180d8f	-0.14848922
84	0x3ec914ca	0.39273673
85	0xbedfe448	-0.43728852
86	0xbe88a349	-0.26687077
87	0x3cad7c4b	0.021177432
88	0x3f579b8f	0.8422174
89	0xbd1e086c	-0.03858225
90	0xbed38e64	-0.41319573
91	0x3ecefe88	0.40428567
92	0x3ee0862a	0.4385236
93	0x3f2c81b9	0.6738544
94	0xbf0d3f0c	-0.55174327
95	0x3e1b6952	0.15176895
96	0x3ea35c91	0.3190656
97	0xbe47a3d2	-0.19496086
98	0xbf39b44a	-0.72540724
99	0xbebcaaff	-0.3684921
100	0xbdc08fb4	-0.09402409
101	0xbf0775ab	-0.5291392
102	0xbf241292	-0.64090836
103	0x3f00a825	0.5025657
104	0x3eb0da76	0.34541672
105	0xbe82aa2d	-0.2552046
106	0xbf0c7e57	-0.5488028
107	0x3d93752a	0.07200082
108	0xbf462b82	-0.7741014
109	0x3e29c210	0.16577935
110	0x3ed68e1b	0.41905293
111	0x3da3d5b3	0.07999744
112	0xbf0de192	-0.5542232
113	0xbf3da37e	-0.74077594
114	0xbee2e7e8	-0.44317555
115	0x3f09f87a	0.5389477
116	0x3da9be7d	0.08288286
117	0xbf31fee3	-0.6952955
118	0x3ef049e2	0.46931368
119	0x3ef294f4	0.47379267
120	0x3f22a185	0.6352771
121	0x3ea16fa8	0.315305
122	0xbe67d55c	-0.22639984
123	0x3e6dc0f8	0.23218143
124	0x3f3d6476	0.73981416
125	0x3da95a37	0.0826916
126	0xbd7d4729	-0.06183544
127	0x3eeebae6	0.46626967
128	0x3ea651bc	0.32484233
129	0x3dac8c2b	0.084251724
130	0xbe961e28	-0.29319882
131	0x3e20cfe6	0.15704307
132	0x3f408e8b	0.75217503
133	0x3d0902d8	0.033449978
134	0x3eaeff32	0.34179074
135	0x3e868c97	0.26279137
136	0xbeaffb2f	-0.34371325
137	0x3ca58554	0.020205177
138	0x3d91bf88	0.0711661
139	0xbeb35b5a	-0.35030633
140	0xbde601b6	-0.11230795
141	0xbf0e0e7a	-0.5549084
142	0x3ca56f7e	0.020194765
143	0x3f195789	0.59899193
144	0xbf4f6478	-0.8101268
145	0x3e99690a	0.2996295
146	0x3de79550	0.11307776
147	0xbe1c813f	-0.15283678
148	0x3ec8ee02	0.39244086
149	0xbedf3982	-0.43598562
150	0xbe8694ce	-0.26285404
151	0x3c949b7c	0.018140547
152	0x3f57a515	0.8423627
153	0xbd10b557	-0.03532919
154	0xbed41184	-0.41419613
155	0x3ecca4d6	0.3996951
156	0x3ee2e46a	0.4431489
157	0x3f2c3383	0.672661
158	0xbf0df704	-0.5545504
159	0x3e17c89e	0.14822623
160	0x3ea2c54d	0.31791154
161	0xbe458e1e	-0.19292495
162	0xbf39c0d8	-0.7255988
163	0xbebd30aa	-0.3695119
164	0xbd9c4608	-0.07630545
165	0xbf06d071	-0.52661806
166	0xbf23db54	-0.64006543
167	0x3f00c440	0.50299454
168	0x3eb3de5a	0.35130578
169	0xbe8325f5	-0.25614896
170	0xbf0c1e08	-0.54733324
171	0x3d9aeae9	0.07564337
172	0xbf454005	-0.7705081
173	0x3e2c996f	0.16855405
174	0x3ed615fc	0.41813648
175	0x3da4ceef	0.08047282
176	0xbf0a4696	-0.54013956
177	0xbf3e25ec	-0.74276614
178	0xbee4320b	-0.4456943
179	0x3f0b0a5c	0.5431268
180	0x3daeaf14	0.08529487
181	0xbf309417	-0.6897597
182	0x3eefa282	0.4680367
183	0x3ef2d69c	0.4742936
184	0x3f224d23	0.6339895
185	0x3e9db3fb	0.30801377
186	0xbe68855d	-0.22707124
187	0x3e733ed4	0.23754436
188	0x3f3d6ce2	0.73994267
189	0x3dadf948	0.08494812
190	0xbd80e19f	-0.06293034
191	0x3eefc974	0.46833384
192	0x3ea5d8d4	0.3239199
193	0x3dad626f	0.0846604
194	0xbe960689	-0.2930186
195	0x3e1fc54d	0.15602608
196	0x3f40a04f	0.7524461
197	0x3d036505	0.03207876
198	0x3eaff5d4	0.3436724
199	0x3e88ee7e	0.26744455
200	0xbeafb124	-0.34314835
201	0x3c907b6c	0.017636977
202	0x3d7b1196	0.061296068
203	0xbeb21012	-0.34777886
204	0xbde6ea46	-0.11275153
205	0xbf0cbc73	-0.5497505
206	0x3cc549c8	0.024083033
207	0x3f19dddf	0.60104173
208	0xbf4f338c	-0.8093803
209	0x3e9bcbd5	0.3042895
210	0x3de91ba7	0.113822274
211	0xbe1a9a13	-0.15097837
212	0x3ec899ec	0.39179933
213	0xbedef11c	-0.43543327
214	0xbe87d2da	-0.26528054
215	0x3c9ed436	0.0193883
216	0x3f578369	0.8418489
217	0xbd1f7222	-0.038927205
218	0xbed38f4e	-0.4132027
219	0x3ece74a8	0.40323377
220	0x3ee16f82	0.44030386
221	0x3f2c2002	0.6723634
222	0xbf0d75be	-0.55257785
223	0x3e1cee38	0.15325248
224	0x3ea547d8	0.32281375
225	0xbe460ed4	-0.19341594
226	0xbf398544	-0.7246897
227	0xbebda8ec	-0.3704294
228	0xbdb3c52c	-0.08777842
229	0xbf06f8c9	-0.52723366
230	0xbf244c43	-0.64178866
231	0x3f005ead	0.50144464
232	0x3eb2c3d7	0.3491504
233	0xbe818151	-0.25293973
234	0xbf0c8110	-0.54884434
235	0x3d9a155d	0.07523606
236	0xbf458fd4	-0.7717259
237	0x3e3039d0	0.17209554
238	0x3ed6f95d	0.41987124
239	0x3da3c7f4	0.079971224
240	0xbf09c990	-0.53823185
241	0xbf3d7134	-0.7400086
242	0xbee3ef40	-0.4451847
243	0x3f0a5f52	0.540517
244	0x3da6ded6	0.08147971
245	0xbf30fd5a	-0.69136584
246	0x3eeff079	0.46863154
247	0x3ef346b3	0.47514877
248	0x3f225d41	0.63423544
249	0x3e9fdeda	0.3122471
250	0xbe69811c	-0.22803158
251	0x3e6cd4e4	0.23128086
252	0x3f3da3b8	0.7407794
253	0x3da84f70	0.082182765
254	0xbd8438ea	-0.06456168
255	0x3ef0736e	0.46963066

weight_u f4 [96, 64]
0	0x3d83a3e1	0.06427742
1	0xbc44e2c3	-0.012016955
2	0xbdde6e9f	-0.10860943
3	0x3d90b724	0.07066181
4	0xbe113c72	-0.14183214
5	0xbc0d6ebd	-0.008632359
6	0xbe03cd0a	-0.12871185
7	0xbdbbf3c6	-0.091773555
8	0x3d18f03e	0.037338488
9	0x3d725e79	0.059172127
10	0xbe00450c	-0.1252634
11	0xbdb18c39	-0.086693235
12	0xbbcd2cd7	-0.006261449
13	0x3c114298	0.008865975
14	0xbe0510c3	-0.12994675
15	0xbca95e11	-0.020674737
16	0xbd2d130b	-0.04225449
17	0x3da84f13	0.08218207
18	0xbdce3fe4	-0.1007078
19	0xbc3c608d	-0.011497629
20	0x3d8b59a9	0.06804211
21	0xbd8bf6bf	-0.068341725
22	0xbca17d7f	-0.019713162
23	0x3e964d4b	0.29355845
24	0xbe1a3b8d	-0.1506178
25	0x3e01e9f8	0.12686908
26	0x3d33734a	0.04381112
27	0x3db150ae	0.086579666
28	0x3de68251	0.11255325
29	0x3d91b69b	0.07114907
30	0xbdc3723c	-0.09543273
31	0x3dbf41bf	0.09338712
32	0xbcd1218a	-0.025528688
33	0x3c54d6a5	0.012990628
34	0x3cc078f4	0.023495175
35	0x3e05b182	0.13055995
36	0xbc7f446e	-0.01558028
37	0xbd17bca3	-0.037045132
38	0xbdd86d96	-0.10567777
39	0x3e0dddde	0.13854167
40	0xbc9ba728	-0.019000605
41	0xbcbd72ef	-0.023126094
42	0xbd59783b	-0.053093176
43	0x3d3f4727	0.046698716
44	0xbd2d21fa	-0.04226873
45	0xbc9a598e	-0.018841531
46	0x3d1cc2cc	0.03827171
47	0xbb6bed64	-0.003599965
48	0x3da54fca	0.08071859
49	0xbc750809	-0.014955529
50	0xbd501bab	-0.050807636
51	0x3d4a059f	0.049321767
52	0x3dfe2a6a	0.124104336
53	0xbcbd5696	-0.023112576
54	0x3cefde86	0.029280912
55	0x3c1865a7	0.00930158
56	0xbdecb9b7	-0.1155886
57	0xbd8c469b	-0.068494044
58	0x3d151429	0.03639618
59	0x3d8d95f8	0.0691337
60	0x3d1f501d	0.03889476
61	0xbc4f9ccb	-0.01267166
62	0xbdc7696d	-0.09736905
63	0xbdde0f4e	-0.10842763
64	0xbd0b9821	-0.03408063
65	0x3e0e5428	0.1389929
66	0x3e01ef39	0.12688912
67	0xbd1591cf	-0.036516007
68	0xbdc93674	-0.09824839
69	0x3e019cd8	0.12657487
70	0xbdab3701	-0.083601005
71	0x3c09283a	0.008371407
72	0xbe64c5ea	-0.22341123
73	0x3c971008	0.018440261
74	0x3d2d5b0c	0.042323157
75	0xbb87b42d	-0.0041413517
76	0xbda0d26d	-0.078526355
77	0x3bb2989e	0.0054503223
78	0x3cd99d8e	0.026564386
79	0x3c4f9e54	0.012672026
80	0x3dd0e39a	0.101996616
81	0x3dcdca08	0.100483
82	0xbd6f7480	-0.058460712
83	0xbda8efbf	-0.08248853
84	0x3d52e035	0.05148335
85	0xbe150b94	-0.14555198
86	0xbdd3f4f1	-0.10349453
87	0x3d4ef005	0.05052187
88	0xbd9c24ea	-0.07624228
89	0xbe39db66	-0.181501
90	0xbdcb8c2a	-0.099388435
91	0xbcff490c	-0.031162761
92	0xbe08c5fd	-0.13356777
93	0xbcc7b5f4	-0.024378754
94	0xbd7bbdaf	-0.061460193
95	0x3d11e133	0.035615157
96	0x3dbb0fdf	0.091338865
97	0x3bcd614a	0.0062677013
98	0x3dc73b50	0.0972811
99	0xbe2f5191	-0.17120959
100	0x3c83d8eb	0.016094645
101	0x3e17eff7	0.14837633
102	0xbcb9f914	-0.022701778
103	0x3e03df65	0.12878187
104	0x3d9a83a7	0.07544642
105	0xbe057669	-0.13033451
106	0xbdf895a0	-0.12137914
107	0x3cd83c04	0.026395805
108	0x3d84e4f6	0.06488983
109	0x3e35df64	0.17760998
110	0xbc32effd	-0.0109214755
111	0xbe2034a3	-0.1564508
112	0x3c4ec900	0.012621164
113	0x3d8735c3	0.06602051
114	0x3d51cead	0.051222492
115	0xbe3bf655	-0.18355687
116	0x3ca41e52	0.02003399
117	0x3d1151c7	0.03547838
118	0x3d70ea9a	0.058817483
119	0x3d31d19f	0.0434128
120	0xbdc3fa16	-0.095691845
121	0x3d95c8b2	0.0731367
122	0xbe08585b	-0.13314955
123	0x3e3923c7	0.18080054
124	0xbd8da496	-0.06916158
125	0x3dd8b2fa	0.10581012
126	0x3d462d3e	0.04838299
127	0xbcf18569	-0.02948256
128	0xbbb59d9b	-0.0055424697
129	0x3bce5d6e	0.006297759
130	0x3d9cf68f	0.07664215
131	0x3d4f8c59	0.050670955
132	0xbd1ae241	-0.03781343
133	0x3d1234de	0.03569495
134	0x3cddb61d	0.027064377
135	0xbd1aea3b	-0.037821036
136	0xbc06befd	-0.008224246
137	0x3e0940ab	0.13403575
138	0xbd29dbb7	-0.041469302
139	0x3d93af44	0.07211164
140	0xbca26b92	-0.019826684
141	0xbc957f24	-0.018249102
142	0xbd6e0c1b	-0.058117013
143	0xbb269fc3	-0.0025424815
144	0xbe1a0b49	-0.15043367
145	0x3d004914	0.031319693
146	0x3e24a598	0.16078794
147	0xbcfbcb66	-0.030736636
148	0xbd25399d	-0.040338147
149	0xbc8ec274	-0.017426707
150	0x3d0ced8e	0.034406237
151	0x3e217e5d	0.1577086
152	0xbe2a81a0	-0.1665101
153	0xbe29f5cd	-0.16597672
154	0xbdb12f64	-0.08651617
155	0xbc85485f	-0.01626986
156	0xbbb83b52	-0.005622306
157	0x3de9db9d	0.11418841
158	0x3e12129b	0.1426491
159	0x3dbe9185	0.093050994
160	0x3d8f6732	0.07002105
161	0x3d95169f	0.07279705
162	0x3e584e17	0.21123539
163	0xbb1dace1	-0.0024059343
164	0xbcc5101e	-0.024055537
165	0x3b0b0b04	0.0021216283
166	0x3cdda501	0.027056219
167	0xbda05182	-0.078280464
168	0xbdb1dd94	-0.08684841
169	0x3d4ec2b2	0.050478645
170	0xbe2053cf	-0.1565697
171	0xbd6f6704	-0.058447853
172	0xbe400058	-0.18750131
173	0x3e087c12	0.13328579
174	0x3d82669b	0.06367227
175	0xbdde3211	-0.10849393
176	0xbe0c8052	-0.13720825
177	0xbdd4f1b3	-0.10397663
178	0x3e2a888f	0.16653655
179	0xbbf99bc7	-0.007617447
180	0x3e084ceb	0.13310592
181	0x3dab2b55	0.08357874
182	0xbb28e7fb	-0.0025773037
183	0xbe589234	-0.21149522
184	0xb8bcafc0	-8.9972746e-05
185	0x3d325cb6	0.043545447
186	0x3d219c3d	0.03945564
187	0xbdc7e0d0	-0.097596765
188	0x3c1a2fbc	0.009410795
189	0xbd2e6b14	-0.042582586
190	0xbd93a24e	-0.072086915
191	0xbd01f2fa	-0.03172586
192	0xbdd9f4a8	-0.106423676
193	0xbda17d33	-0.07885208
194	0xbac871b6	-0.0015292678
195	0x3ddb8cce	0.10720216
196	0x3dc62754	0.0967547
197	0xbcf73bad	-0.030179823
198	0x3cfe6a94	0.03105668
199	0x3e2cd099	0.16876449
200	0x3cf16e47	0.02947153
201	0xbe0f9d66	-0.14024886
202	0x3d1b3148	0.037888795
203	0x3dd9a4a7	0.10627108
204	0xbcf5b8d9	-0.029995369
205	0x3df2b69a	0.11851235
206	0xbc7ea169	-0.015541413
207	0x3c6ca45a	0.014443481
208	0x3e0fef52	0.14056137
209	0x3db45a84	0.08806327
210	0xbdb84cbf	-0.08999013
211	0x3df0e41c	0.117622584
212	0xbd7407aa	-0.05957762
213	0x3e2c3e39	0.16820611
214	0xbde1c700	-0.11024284
215	0x3d55b171	0.052171174
216	0xbdccc620	-0.09998727
217	0xbdc36473	-0.095406435
218	0xbd59eab0	-0.05320233
219	0xbe543ea5	-0.20727022
220	0x3d96b9ef	0.07359683
221	0x3da4a08e	0.08038436
222	0xbd908d7f	-0.07058238
223	0xbe04fa6c	-0.12986153
224	0xbd638fde	-0.055557124
225	0xbc91b92a	-0.017788488
226	0x3c41ceff	0.011829137
227	0xbca361bb	-0.019944062
228	0x3dcdf082	0.10055639
229	0xbe18723a	-0.14887324
230	0x3dfb0c31	0.12258185
231	0xbd9d81a1	-0.076907404
232	0xbddac74a	-0.106825426
233	0x3e28bfc4	0.16479403
234	0x3dd18a1a	0.10231419
235	0x3d370b08	0.044688255
236	0xbdb5637d	-0.088568665
237	0xbe2476bf	-0.16060923
238	0xbe284a20	-0.16434526
239	0x3c24851e	0.010041503
240	0x3d8cf0b5	0.06881849
241	0xbd7dc192	-0.06195218
242	0x3d88fef6	0.06689255
243	0x3d074f16	0.033034407
244	0xbcd90ac2	-0.026494388
245	0xbd20454b	-0.039128583
246	0x3dfa3212	0.122165814
247	0xbe19210b	-0.14954011
248	0xbd648275	-0.055788476
249	0x3c1d0a86	0.0095850285
250	0xbe7c4a07	-0.24637614
251	0x3d97a8c1	0.07405234
252	0x3d7a6f26	0.061141156
253	0x3e0169dc	0.12638038
254	0x3e2fa4c5	0.17152698
255	0x3ddf0343	0.10889294

bias_u f4 [1, 64]
0	0x00000000	0.0
1	0x00000000	0.0
2	0x00000000	0.0
3	0x00000000	0.0
4	0x00000000	0.0
5	0x00000000	0.0
6	0x00000000	0.0
7	0x00000000	0.0
8	0x00000000	0.0
9	0x00000000	0.0
10	0x00000000	0.0
11	0x00000000	0.0
12	0x00000000	0.0
13	0x00000000	0.0
14	0x00000000	0.0
15	0x00000000	0.0
16	0x00000000	0.0
17	0x00000000	0.0
18	0x00000000	0.0
19	0x00000000	0.0
20	0x00000000	0.0
21	0x00000000	0.0
22	0x00000000	0.0
23	0x00000000	0.0
24	0x00000000	0.0
25	0x00000000	0.0
26	0x00000000	0.0
27	0x00000000	0.0
28	0x00000000	0.0
29	0x00000000	0.0
30	0x00000000	0.0
31	0x00000000	0.0
32	0x00000000	0.0
33	0x00000000	0.0
34	0x00000000	0.0
35	0x00000000	0.0
36	0x00000000	0.0
37	0x00000000	0.0
38	0x00000000	0.0
39	0x00000000	0.0
40	0x00000000	0.0
41	0x00000000	0.0
42	0x00000000	0.0
43	0x00000000	0.0
44	0x00000000	0.0
45	0x00000000	0.0
46	0x00000000	0.0
47	0x00000000	0.0
48	0x00000000	0.0
49	0x00000000	0.0
50	0x00000000	0.0
51	0x00000000	0.0
52	0x00000000	0.0
53	0x00000000	0.0
54	0x00000000	0.0
55	0x00000000	0.0
56	0x00000000	0.0
57	0x00000000	0.0
58	0x00000000	0.0
59	0x00000000	0.0
60	0x00000000	0.0
61	0x00000000	0.0
62	0x00000000	0.0
63	0x00000000	0.0
