Mandatory2/oblig2_assignment_rev3/unit_tests/RNN_tensors_is_train_False.pt (torch_old, 408450 bytes, 24 tensors)

weight f4 [100, 64]
00000000: ba16 ff3d 406d adbd 9e96 8ebd a04e b6bc
00000010: 800d 793b 6281 d9bd 5838 bbbc 08de 41bd
00000020: 2ab0 f93d 9a33 fabd be38 b63d 042f 05bd
00000030: 088a ad3d 9c9d 1ebd 167d df3d 94aa e8bd
00000040: 10da 213c e45c cd3d 0020 de38 24c6 abbd
00000050: dced 61bd 6ef7 f53d 2c2f f6bd 3af4 a2bd
00000060: a276 c73d 580d 413d 049c c13d fea7 ea3d
00000070: 5af9 ecbd c26d aa3d 3440 c0bd de5d a43d
00000080: 60dc afbb 4ca5 a5bd 0014 7b39 ecaa 95bd
00000090: 8eb9 dcbd aa52 f93d e8ff c73d e408 703d
000000a0: a22d 9bbd a42f b6bd c267 efbd 70c8 bc3d
000000b0: 724e c8bd d43b 68bd defa 85bd bc38 393d
000000c0: 960d c6bd 40a1 f23d 085d fb3c 20f7 5abc
000000d0: ea9d d5bd a06f 6a3d 200e 1a3d 307a edbc
000000e0: 58f5 483d 66a9 cdbd e44c 0c3d 081b 9abc
000000f0: 001e 16bc 009b 47bc 5e6b e7bd 0095 6fbc
00000100: 0c16 21bd a037 003d b8d9 6e3d b460 cf3d
00000110: 4420 8a3d 5c89 273d 4e18 933d 60a4 f93b
00000120: 207c 71bd 007c e93d e604 b93d 706c 8abc
00000130: 86b3 cebd 54bf debd 2ac5 e33d 3887 cbbc
00000140: 7863 cbbc 7433 50bd 26a3 8d3d f6fc ebbd
00000150: a6c9 923d ea13 b23d a0a8 b5bd d033 c5bd
00000160: 4061 d73c a2c6 dfbd 003f 203c fcd1 6abd
00000170: eeec 9d3d 2019 d3bd 3013 c7bd d491 5f3d
00000180: d085 efbc 50d9 653c 7450 0f3d 9c3a 593d
00000190: 585d f23d 08c7 ffbd c453 32bd 7016 03bd
000001a0: cc58 3a3d 8465 873d 8087 7b3b bc9f 0abd
000001b0: 16fe 8a3d 9e0c bdbd e284 ef3d 62ae d0bd
000001c0: 6066 23bc 54e7 043d d08a 3bbd de5b d5bd
000001d0: be10 c9bd 8ed4 8a3d 48b4 7dbd 00ca ed3a
000001e0: cedb f03d 8ecf c9bd 9848 50bd 3020 bcbd
000001f0: 4c7c 09bd cc3e d03d 28a4 0cbd 1456 e63d
00000200: 3ce6 69bd e2dd a73d 38cb 953d a837 5cbd
00000210: 80b3 423c 1472 fbbd 86ae babd 8c05 b63d
00000220: 5690 a4bd e854 a7bc d0f3 513c 5cd7 3bbd
00000230: f83a 733d 6006 973c 2a0a 883d cc31 823d
00000240: ac7c 9dbd a6cb ebbd 802c 653d a880 b73d
00000250: a044 8bbc 5864 6f3d 7cdd f0bd 809b bd3d
00000260: 4074 92bd 482c fc3c 002e d9bd 4432 d6bd
00000270: 0eb6 c9bd 00cb 29bc f8f0 233d d0ad bd3c
00000280: 485e 373d b8a0 923c 94ef 9e3d f464 82bd
00000290: 605e 86bc 0014 4b3a 14f9 46bd 8eff ab3d
000002a0: 1a14 c83d 80c2 763c 1cad a8bd a0de 2c3d
000002b0: 8e95 803d e08c 8d3c 9036 72bd 803a 943a
000002c0: e8b0 6e3d 56b1 c43d 3a19 d53d 08ca 0d3d
000002d0: 400e b83c 48fe eabd 786e adbd 4e3d 94bd
000002e0: 183b 253d ead5 b03d d877 fbbc 0055 96bd
000002f0: 98e3 ad3c cce1 25bd e210 d4bd 14f2 ed3d
00000300: d002 acbd a65d 9fbd 54f3 c7bd 00b5 23bb
00000310: b03f 5c3d 149d fdbd 6457 e83d 40eb 90bc
00000320: 8663 853d 7e9f edbd 5ca0 063d 4490 1fbd
00000330: ea36 983d a88e 86bc f06a 91bd 9c17 04bd
00000340: 70d9 b33d 3231 ed3d c679 e33d 5841 ea3c
00000350: 70d1 973c 5665 843d 5c49 de3d 6caf 90bd
00000360: e600 97bd 88ec 89bc 649e 7b3d 8499 b13d
00000370: 0c98 54bd e4f6 26bd 2edf a6bd 4436 c6bd
00000380: 48c3 e93c 6031 c73d b0e6 8fbc 8229 d9bd
00000390: 0825 72bd 82d9 8c3d 8092 d9bb 7811 d23c
000003a0: 0036 f539 d246 94bd 4231 95bd 686b 8d3c
000003b0: 08a0 f43c 00ef 85bd 7428 383d 0844 f3bd
000003c0: 4086 933c 8a6f 92bd b012 bc3d 105c 38bd
000003d0: dc0e 453d 0023 c13d bc86 b8bd 88ab 47bd
000003e0: 9036 ff3c fce3 11bd 40f4 eb3b 78b5 d9bd
000003f0: 4618 c4bd 526a 83bd 3005 fc3d 5c32 f5bd
0.124555066 -0.084681034 -0.06962322 -0.022254288 0.0038002431 -0.10620381 -0.022854015 -0.047330886
0.12191804 -0.122168735 0.088975415 -0.03251554 0.08473593 -0.038724527 0.1091253 -0.1136066
0.00987865 0.10027483 0.000105917454 -0.08387402 -0.05515848 0.12010084 -0.12020716 -0.07956739
0.09739424 0.047131866 0.09453586 0.11457823 -0.115709975 0.08321716 -0.09387246 0.08025716
-0.005366847 -0.080881685 0.00023944676 -0.073079914 -0.10777579 0.1217397 0.09765607 0.05860223
-0.07577063 -0.088958055 -0.11689712 0.09217918 -0.09780587 -0.05669768 -0.0654199 0.04522012
-0.0967056 0.11847162 0.03068401 -0.013364583 -0.1043051 0.05723536 0.037611127 -0.028988928
0.049062103 -0.10042076 0.034253016 -0.018811718 -0.009162426 -0.012182951 -0.112997755 -0.014622927
-0.039327666 0.031303048 0.0583131 0.101258665 0.067444354 0.04090248 0.0718237 0.007618472
-0.058956265 0.11400604 0.090341374 -0.01689741 -0.10092835 -0.10876337 0.111215904 -0.02484475
-0.024827704 -0.05083032 0.06915884 -0.11522858 0.07167368 0.086952046 -0.08870053 -0.09629023
0.02629149 -0.10926558 0.009780645 -0.057329163 0.077112064 -0.103075266 -0.097204566 0.054582432
-0.029238611 0.014028862 0.034988835 0.05303441 0.1183421 -0.12489134 -0.043536916 -0.03200382
0.04549484 0.066111594 0.0038380325 -0.03384374 0.06786744 -0.09230922 0.11695267 -0.10189511
-0.009973139 0.032447174 -0.04578668 -0.10417913 -0.098176464 0.06778823 -0.061939508 0.0018141866
0.117606744 -0.09854041 -0.05085048 -0.09185827 -0.033565804 0.101682276 -0.03433624 0.11246887
-0.057104334 0.08196618 0.073141515 -0.053764015 0.011883616 -0.12277618 -0.09115319 0.08887777
-0.080353424 -0.020426229 0.012814477 -0.04585968 0.05938241 0.018435657 0.06642564 0.06357154
-0.07689795 -0.11513452 0.05595064 0.08960086 -0.017000496 0.058445305 -0.11760995 0.09258175
-0.07151079 0.030782834 -0.10604477 -0.10458806 -0.09849177 -0.01036334 0.040024728 0.02315417
0.044767648 0.017898902 0.0776054 -0.063669115 -0.016402423 0.00077468157 -0.048577383 0.083983526
0.09769459 0.015061021 -0.08236143 0.0422045 0.06278525 0.017279088 -0.059134066 0.0011308938
0.05827418 0.09604137 0.10405202 0.0346165 0.022467732 -0.114742815 -0.08468336 -0.072382554
0.04033956 0.08634551 -0.030696794 -0.07340431 0.02122669 -0.04049854 -0.10354783 0.11618438
-0.08398974 -0.07781534 -0.09763208 -0.002497971 0.053771675 -0.12383476 0.113447934 -0.017690301
0.06513123 -0.11602686 0.032867774 -0.03895594 0.07432349 -0.016425446 -0.07100475 -0.03224908
0.08781707 0.11581649 0.11107211 0.028595611 0.018532485 0.06464641 0.10853836 -0.07064709
-0.07373218 -0.01683642 0.06143035 0.08671859 -0.051902816 -0.040762797 -0.08148037 -0.09678319
0.0285355 0.097262144 -0.017566055 -0.1060362 -0.059117347 0.06877424 -0.0066397786 0.025643095
0.00046770275 -0.072400704 -0.07284786 0.01726313 0.029861465 -0.06539726 0.044960454 -0.1187821
0.018008351 -0.07150181 0.09183252 -0.045009673 0.048109874 0.09430504 -0.090100735 -0.04874757
0.031153947 -0.035617813 0.0072007477 -0.106303155 -0.09574942 -0.06416763 0.12305677 -0.11972496

bias f4 [100]
00000000: de20 bbbd 84cb 71bd 74aa 15bd 6074 6cbc
00000010: 3472 cfbd 4035 c9bc d00a 4dbd 0449 493d
00000020: c66a bbbd f815 f5bd 3e21 9cbd e833 80bc
00000030: 00aa 093c 68fc afbd 283f 92bc 0012 d4bb
00000040: 0077 2eba 2888 84bd 40c8 6c3d d0ce 68bd
00000050: 60f8 ddbd ca76 9bbd 0aaa ad3d 8046 57bd
00000060: 9864 2b3d 243f 74bd b028 1a3d c4e9 123d
00000070: 1805 19bd f485 94bd d499 8ebd 544d 7a3d
00000080: 1853 cc3d ec9a eb3d 7045 47bc 9633 f03d
00000090: 9cf6 a03d 28cd 6fbd 78a3 933c a01c 5dbd
000000a0: d024 dfbd 9049 873d 4067 1c3d 8e4a febd
000000b0: f428 6dbd 00d2 4c3b e090 e23d dc69 b0bd
000000c0: 0e96 8bbd 783a 4abd c04b 543b 1ad6 a63d
000000d0: 8826 4bbd 489f ff3d 44db 6abd 1cbb e6bd
000000e0: f8d8 a63d 90a1 b7bd b878 30bd c4f9 de3d
000000f0: 7841 e3bd 60e5 ca3d 58b3 17bd 94dc 513d
00000100: 80a2 74bb 087d a23d 701d ac3d 06d5 a3bd
00000110: 28d4 92bc d637 e43d 4c5f 62bd 18c2 db3d
00000120: 023e af3d b0cb 9fbc 9e11 ab3d 44f1 2ebd
00000130: 8c8c 29bd d0ee cebc 44f8 1e3d dc1c 6cbd
00000140: 00d2 1e3d 80a3 b4ba fe30 c6bd e01b 993d
00000150: 40fe 76bd 327b f13d 2059 e13c f83f a23c
00000160: b05c 2d3c 06b0 88bd 56c0 9dbd 38f3 8fbd
00000170: 38c7 13bd f87e d1bd fc95 d2bd 2050 a83b
00000180: e896 8cbc 9e97 81bd 5042 b13d 90d9 133d
-0.09137128 -0.05903198 -0.03653951 -0.014432043 -0.101292044 -0.024561524 -0.05005914 0.0491419
-0.09151225 -0.11967081 -0.07623528 -0.01564975 0.008402348 -0.085930645 -0.01785238 -0.0064718723
-0.00066553056 -0.06471282 0.05780816 -0.056837857 -0.108383894 -0.075910166 0.08479698 -0.05255747
0.04184398 -0.059630528 0.03763646 0.035867468 -0.037358373 -0.07252112 -0.06962934 0.061108902
0.099767864 0.115041584 -0.012162551 0.11728589 0.07859537 -0.05854526 0.018022284 -0.053982377
-0.10895693 0.06605828 0.038184404 -0.12416564 -0.057900384 0.00312531 0.11062789 -0.08613941
-0.0681573 -0.049372166 0.0032393783 0.081463054 -0.049597293 0.12481552 -0.057338014 -0.11266157
0.08146852 -0.089663625 -0.043083876 0.10887483 -0.110964715 0.09907031 -0.03703627 0.05123575
-0.0037328303 0.07934004 0.08404052 -0.07999615 -0.01792343 0.11143462 -0.055266663 0.1073038
0.08556749 -0.019506305 0.083529696 -0.042710558 -0.0413938 -0.025260359 0.038810983 -0.05764471
0.03877449 -0.0013781637 -0.09677313 0.0747602 -0.060301065 0.11791076 0.027508318 0.019805893
0.01058118 -0.06674199 -0.07702701 -0.07028812 -0.03607866 -0.102292955 -0.102825135 0.005136505
-0.017161801 -0.06327747 0.08655226 0.036096156

weight f4 [100, 32]
00000000: 8d6a 0040 4e42 1dbf 5f8b 6c3f 2c16 5c3e
00000010: 5a73 c43e fb3f 7bbe 6182 8f3d 33b9 103f
00000020: 2eec de3f 2986 7dbf 8bd9 823e 834f 3bbf
00000030: 41a6 c2bf 8068 ad3f eb69 50bf 3c43 dfbf
00000040: 6cd1 c3be cf2a b7be eaee 6bbe 545a b33e
00000050: 147b 843d 203f 0e3f 3bee 183f 7e16 53bf
00000060: f5f6 f33f 3e97 a4bf 4f38 91bf 6b96 163f
00000070: f342 5fbe a03a 163f 66a8 d0bf 7c9a d43e
00000080: 66d9 7bbf 51cc 06c0 6b7f 96be 3024 65bf
00000090: 9e03 0f3e 66ba 393f 0699 cabe 0d05 af3f
000000a0: 2391 f4be 2293 f63e 948a bdbf 8ccc 03bf
000000b0: 124c 123f aff2 ed3e bf2c db3f d1d6 a03e
000000c0: 8153 b1bf a20c 503f c2dc f03e fb49 9ebe
000000d0: 7edc 063f 3bca 02bf 272c 383e 0077 f7bd
000000e0: cf50 fb3f 0f7a 6abf 596e 75bf 8d26 983f
000000f0: b5a8 ee3f 8720 63bf 7cf6 21be 7b8c 963e
00000100: 1823 603e 47e6 0340 fef2 693f 3155 853f
00000110: 45c9 7d3f dd8b 20bf 88e3 82bf 1002 b43f
00000120: e587 673e f868 cdbf b057 b63f c09d b9bf
00000130: 153a 50bf 6d9b f3bd 3a87 c5be 9f04 65bf
00000140: 4460 823e 16ea 45bf fc73 79be f053 613f
00000150: 2db7 08bd 3487 e3be a33c 8b3f 2536 0ebd
00000160: 7f37 4a3f e74d e3bf 2efa f7be ac5e a2bf
00000170: 6d73 a33e 4b90 c5bf af74 7dbe 656f 27bf
00000180: 9147 243f fdcd 90bf 5a57 d2bf 951a a73e
00000190: 219b 56bf a711 ef3e 259e 93bf ccc3 5d3e
000001a0: 431d b43f 6e95 9d3d 7178 e7bd 2343 3dbe
000001b0: 02c3 a73f 4fb8 b13e 9dd3 5abf 32ed a2be
000001c0: b3ba 4fbf 0905 7cbf 5045 5bbd 6c4a 963f
000001d0: 3b8d 53bf b6c6 5c3f 824d 5d3e 013b 4f3f
000001e0: ccb8 233e 31b3 af3e 97ba 04bf 09ad 803e
000001f0: 876a a13e 848c febe 7d39 3d3e b6dc 4dbf
00000200: 2142 ea3f e851 d9be 775c d23f b53e 663e
00000210: c956 44c0 e3e7 a0bc c5ac 0440 0478 f4be
00000220: 912e c73f 7742 153e 5ba8 753e c8d2 dbbf
00000230: b74a 0e3e ad0a 9fbe 50af 17bf 67dc 943e
00000240: 3ea1 293f 073f c13f c3c2 353f 2737 24c0
00000250: bf27 0fbf dc29 4dbd ea91 61bf 65b3 92bf
00000260: b98a cbbf 50f1 57bf 1403 703f 4c37 e23d
00000270: df27 573f adf5 973d 62a0 f4be ff87 8d3f
00000280: db27 433e 3572 2ebe 5819 6abf f94a c43e
00000290: 2a0a 8ebf e13a 86bf b6e1 c1bd 5bad d7be
000002a0: c92e c33e 240d 98bf 641b 86bf 0d3c b23e
000002b0: a95d d93e be8f 1940 a159 903f 268c 8c3e
000002c0: 77cd 0940 214d c53f d308 403f 0548 a8bd
000002d0: 35d3 d9bf cb5e 7fbf 217a 45bd f897 01bf
000002e0: 3e2e ac3e b352 b93f 7d74 a0bf 425c 6f3c
000002f0: a19c a4bf 6a52 c0be b229 11bc 3c45 a3be
00000300: 63bb 33be f2d3 50be d6a5 9ebf a3ef 543e
00000310: 6409 4e3e aa5c 703f 0bac 02bf 8564 3bbf
00000320: 7824 e43e 5219 1ac0 8ecd 0abe 9a6e c23d
00000330: 502b 803e 057e 51bf c448 273f 080b 0abf
00000340: 863f 17c0 12cd 833f c93a 573d 9401 0abf
00000350: 2832 a3be f2a3 08be ab97 36bf 41fb 7cbf
00000360: 025a 903f 3069 ecbd 518b b0bf 817e d33f
00000370: 5451 18bf 5031 403f f086 543f 3518 d6be
00000380: 1d5b 563f 3030 b8be b521 53be a565 44be
00000390: 2993 9cbe 617f 0d40 57b1 8abf 7521 cfbf
000003a0: b49b 903d 927e 33bf ff33 e9bf d1b3 03c0
000003b0: bc33 37bf 8c79 ae3f 9a18 2340 50ae 07c0
000003c0: c812 6abf 1b98 c93f c592 29c0 1a4b b4bf
000003d0: eb37 3bbe c7c9 cbbc 3099 a0be f52a f5be
000003e0: 7e1b a13f cc47 a6be 16bf 363f 5002 a53d
000003f0: 9e9a 483f a52f 033f 688d 903f 5c3d ea3e
2.0065033 -0.614293 0.92400163 0.21492833 0.38369256 -0.24536125 0.0700729 0.5653259
1.7415826 -0.9903284 0.25556597 -0.731682 -1.5206987 1.3547516 -0.8141162 -1.7442393
-0.38245714 -0.35774848 -0.23040357 0.35029852 0.06468788 0.5556507 0.5973851 -0.82456195
1.905974 -1.2858655 -1.1345309 0.5882327 -0.21802883 0.58683205 -1.6301391 0.41524112
-0.983786 -2.1062205 -0.29394087 -0.8950834 0.13966224 0.72550046 -0.39569873 1.3673416
-0.4776698 0.48159128 -1.4807916 -0.5148399 0.57147324 0.46474215 1.712303 0.31413892
-1.3853608 0.81269276 0.47043425 -0.30915818 0.52680194 -0.5108983 0.17985593 -0.12083244
1.9634036 -0.91592497 -0.958715 1.1886765 1.8645235 -0.8872151 -0.15816683 0.29404053
0.21888387 2.06093 0.913864 1.0416623 0.9913524 -0.62713414 -1.0225687 1.406313
0.22610433 -1.6047659 1.424551 -1.4501266 -0.81338626 -0.118948795 -0.38579732 -0.89460176
0.2546407 -0.7731031 -0.24360651 0.88018703 -0.033377815 -0.4443909 1.087788 -0.034719605
0.7899093 -1.7758149 -0.4843306 -1.2685142 0.31924 -1.543466 -0.24751543 -0.6540435
0.641717 -1.1312863 -1.6432908 0.32637468 -0.8383046 0.46693155 -1.1532637 0.21656722
1.407143 0.07694517 -0.11302269 -0.18482642 1.3106387 0.3471093 -0.85479146 -0.3182159
-0.81144255 -0.98445183 -0.0535329 1.1741462 -0.82637376 0.8624071 0.21611598 0.8094941
0.15988463 0.343164 -0.51847214 0.25132015 0.31526586 -0.4971658 0.18478961 -0.80414903
1.8301431 -0.42445302 1.6434468 0.22484858 -3.067797 -0.019641822 2.073045 -0.47747815
1.5561086 0.14576136 0.23990004 -1.71737 0.13895689 -0.31062832 -0.5925188 0.29074404
0.6626166 1.509736 0.7100031 -2.5658662 -0.5592002 -0.05008875 -0.8811327 -1.1460997
-1.590171 -0.8435259 0.93754697 0.11045703 0.84045213 0.07419906 -0.47778612 1.1057128
0.19058172 -0.17035754 -0.9144492 0.3833845 -1.1096852 -1.0486718 -0.09466879 -0.42124447
0.38121632 -1.187901 -1.0477109 0.3481144 0.4245427 2.3993983 1.1277353 0.27450675
2.1531656 1.5414163 0.75013465 -0.08216862 -1.701758 -0.9975402 -0.048212174 -0.5062251
0.3362903 1.4478363 -1.2535549 0.014609398 -1.2860299 -0.37562877 -0.008860039 -0.3188876
-0.17551951 -0.2039335 -1.2394359 0.20794539 0.2012077 0.93891394 -0.51043767 -0.73200256
0.44559073 -2.4077954 -0.13554975 0.09493752 0.25033045 -0.81832916 0.65345407 -0.5392308
-2.3632522 1.0296957 0.052546296 -0.5390866 -0.31874204 -0.1334379 -0.71325177 -0.98820883
1.1277468 -0.115435004 -1.3792516 1.6522981 -0.59499097 0.75075245 0.830184 -0.41815343
0.8373278 -0.35974264 -0.20618327 -0.191794 -0.30581024 2.2108996 -1.083537 -1.6182085
0.07060948 -0.70115006 -1.8218993 -2.0578501 -0.71563315 1.3630843 2.5483766 -2.1200142
-0.9143491 1.5749544 -2.649583 -1.4085419 -0.1828305 -0.024876488 -0.31366873 -0.47884336
1.2586515 -0.32476652 0.71385324 0.08057082 0.7836093 0.51244575 1.1293154 0.45749938

initial_hidden_state f4 [3, 4, 64]
00000000: 1190 7e3f 804b 853e e976 65bf 46e6 13bf
00000010: d0ef 7bbf db1d 763f a605 2e3d 527a 713f
00000020: 0b5e 703f 6c79 7ebf 8295 7fbf 407f ccbe
00000030: 324d 70bf 4ada 4e3f 8a62 643e 254b 733f
00000040: dd31 f93e 6f2d 26bf e8c3 3f3f 3c2f 77bf
00000050: f774 0b3f 94f3 7bbe ecc0 37bf a379 7b3f
00000060: 84be 9f3e 2e45 733f b68b 763f 8988 7f3f
00000070: dfea 7fbf a663 4fbf e5e9 7f3f 3224 363f
00000080: 8ffa 7e3f a51f 793f cbed 8e3d ec3e 533f
00000090: 02c0 7d3f 1e75 4ebf 5d36 26bf 43d8 7f3f
000000a0: a8eb 483f a2dd a0be 25ce d8be c03f 22bf
000000b0: 34d9 17bf 22e1 7cbf 2474 003f 615c 673e
000000c0: cc43 67bf f39d 7e3f 9e03 7fbf 4b9a 333f
000000d0: 78e4 273f 1cbe 7fbf 83bb 793f 1422 7dbf
000000e0: cd46 dd3e 10ef 49bf 0aa5 78bf bc01 55bf
000000f0: a031 72bf 9bde 7e3f d858 24bf 14a4 723f
00000100: 11b2 7d3f 06a6 09bf ea6c a9be 2d50 28bf
00000110: a2c0 7dbf 0d3a 3b3f 5ae6 74bf 99f1 87bd
00000120: d9e5 703f b6f3 78bf a8f3 7fbf 9a83 7b3f
00000130: 6bd1 73bf 4d92 53bf 1075 6cbf 4cf1 7b3f
00000140: 7812 cbbd 1948 9c3e c0d4 5dbf 9b11 763f
00000150: 9db8 113f 0218 1d3f 44b5 7fbf e76d 64bf
00000160: 44ad 7e3f c13d 5dbf e9de 793f 9b7b 7e3f
00000170: 213d 76bf 2472 7bbf 9ccd 05bf c719 47bf
00000180: 0ada 743f 2287 7b3f 0325 1c3e 4533 233f
00000190: c471 7d3f a716 733f a64f 3d3f 823d 5b3f
000001a0: 1195 78bf dbbd 38bf 8b08 773f 5d77 18bf
000001b0: b929 76bf 65a0 09bf 2df5 7dbf 098f 78bf
000001c0: 71fa 96be 8ab9 7b3f f1c2 7ebf 9da4 5e3f
000001d0: 3740 d43e 0eb4 af3e 5db9 0f3f dc20 9a3d
000001e0: 6d26 783f 7ff6 5c3f 674e 633f 8777 7f3f
000001f0: 7819 da3e 6dd5 653f 5eac 7c3f 47f5 7d3f
00000200: b1d5 7f3f 8cfc 7fbf b0aa 77bf 0f50 79bf
00000210: dff5 7fbf 3034 f0be 9019 7dbf ef66 72bf
00000220: fab3 7f3f 4691 66bf 51ae 7fbf ec52 663f
00000230: d656 0cbf 074b 4b3f 141f 3fbf 9760 693f
00000240: b861 863d 1b96 713f 7060 703f 8585 2bbf
00000250: 4f55 0cbe b0d6 7e3f 80c3 7fbf f0d0 5dbf
00000260: 4954 7f3f e843 243f ccfd 7f3f 44b4 773f
00000270: f6ff 7fbf b008 4a3f b3ee 7f3f f01f 7e3f
00000280: cfff 7f3f 30a3 2a3f c32e 773f 1bdf 753f
00000290: bce5 7f3f dc2a 473f 49ba 6cbf bfff 7f3f
000002a0: 3ba3 783f 6f55 5abf 1280 183f ca12 abbe
000002b0: f70d 7fbf 9a17 51bf 1760 7fbf 3973 6dbf
000002c0: 3e90 08bf b50c 4c3f bb17 7fbf d96b 7ebf
000002d0: 0c21 7fbf 9aea 7fbf 4988 6d3f bbab 5bbf
000002e0: 2e7a 753f d199 7c3f 3756 7e3f 85da 6cbe
000002f0: 15aa e53d dffd 7f3f c715 463e a2fe 7f3f
00000300: 0373 723f e767 493e 9eb8 e8be 2ae6 433f
00000310: 524e 99be b6ec 223f 9586 0abf b29e 4abe
00000320: 3690 623f 3c97 a7be 3fac 6fbf de33 5d3f
00000330: 7eff 73bf 2eb5 37bf 9d90 6cbf b03a 3e3e
00000340: 2b82 663f 7f71 5bbf ec17 4f3f dd60 403f
00000350: c0dd fc3e 7192 13be 9c38 5dbf 4f3d 24bf
00000360: 1e06 833e 7001 ba3e 69e2 653f 12f7 723f
00000370: 7762 073f 1410 4fbf bb0c 6c3f 172c 60bf
00000380: bdcf 923e 3d37 7b3f 4213 47bf b676 fcbe
00000390: 2cb1 173f 0bd2 77bf e52f 54be 0e5e 8e3d
000003a0: 9cd5 15bf 0dc6 4cbf 4b60 253f cf03 2fbe
000003b0: 72a1 663f b21e 04bf 637a 58bf 868b 383f
000003c0: 7d17 54bf ea28 91be 86e9 01bf 3994 3a3f
000003d0: d7cc de3d ec95 00bf 371f fc3e 1f06 713f
000003e0: 7e28 3cbf 5f27 69bf 0cec 79bf c7a1 263f
000003f0: f647 41bf d354 bb3d b622 63bf 3900 203f
0.9943858 0.26034164 -0.8963457 -0.57773244 -0.984128 0.96139306 0.042485856 0.9432727
0.938935 -0.99404025 -0.99837506 -0.39940834 -0.9386779 0.8080183 0.22303215 0.95036536
0.48670855 -0.64913076 0.74908304 -0.9655645 0.5447535 -0.24604636 -0.7177875 0.9823248
0.3120004 0.95027435 0.9630693 0.9981771 -0.9996776 -0.81011426 0.9996627 0.7114898
0.9960107 0.9731391 0.06978949 0.82517886 0.99121106 -0.80647457 -0.649267 0.99939364
0.7848458 -0.31419092 -0.42344776 -0.63378525 -0.593158 -0.98781025 0.50177217 0.22593834
-0.90337825 0.9945976 -0.99614894 0.7015731 0.6558299 -0.9989946 0.97551745 -0.98880124
0.4321808 -0.78880405 -0.9712683 -0.8320577 -0.9460697 0.9955842 -0.64198065 0.94781613
0.9909983 -0.53768957 -0.33090907 -0.6574734 -0.9912206 0.73135453 -0.9566399 -0.06637878
0.9410072 -0.97246873 -0.99981165 0.98247683 -0.9524142 -0.8264511 -0.92366123 0.98415065
-0.09915632 0.30523756 -0.86652756 0.96120614 0.5692232 0.6136476 -0.99885964 -0.892302
0.9948313 -0.86422354 0.9760576 0.99407357 -0.96187025 -0.9822104 -0.5226686 -0.7777371
0.956452 0.9825307 0.15248494 0.63750106 0.9900172 0.9495644 0.7394966 0.8564073
-0.9710246 -0.72164696 0.9649741 -0.59557134 -0.96157414 -0.5376037 -0.99202234 -0.97093254
-0.29487947 0.98329985 -0.99516207 0.8696993 0.41455242 0.34317058 0.56142217 0.07525799
0.96933633 0.86313623 0.8879151 0.9979176 0.42597556 0.89778787 0.9870051 0.9920239
0.9993544 -0.9999473 -0.96744823 -0.97387785 -0.99984545 -0.46914816 -0.9886713 -0.94688314
0.99884 -0.9006542 -0.9987536 0.8997028 -0.5482 0.7941136 -0.74656796 0.9116301
0.06561607 0.9436967 0.9389715 -0.6700061 -0.13704418 0.9954634 -0.99907684 -0.8664694
0.99737984 0.64166117 0.9999664 0.9675944 -0.9999994 0.78919506 0.999736 0.9926748
0.9999971 0.66655254 0.9655573 0.96043557 0.9995992 0.77799773 -0.9247175 0.9999961
0.9712407 -0.8528661 0.5957042 -0.33412772 -0.99630684 -0.8167664 -0.99755996 -0.9275394
-0.53345096 0.7970689 -0.99645585 -0.9938331 -0.996598 -0.9996735 0.9278608 -0.85808915
0.95889556 0.98672205 0.99350303 -0.23130234 0.11214081 0.9999675 0.19344245 0.99997914
0.94706744 0.19668542 -0.45453352 0.7652308 -0.29942566 0.6364244 -0.54111606 -0.197871
0.885013 -0.3273257 -0.936222 0.8640727 -0.95311725 -0.71760833 -0.9240816 0.18577075
0.9004237 -0.85720056 0.80895877 0.751478 0.49387932 -0.14411332 -0.86414504 -0.6415605
0.25590605 0.36329222 0.897986 0.9490825 0.5288462 -0.8088391 0.92206925 -0.87567276
0.28674117 0.9813116 -0.7776376 -0.4930932 0.5925472 -0.96804875 -0.20721395 0.06951533
-0.5852907 -0.799897 0.64600056 -0.17091297 0.90090096 -0.5160934 -0.8456175 0.72087896
-0.8284834 -0.28351527 -0.50746953 0.7288242 0.10878914 -0.5022876 0.49242565 0.94149965
-0.73499286 -0.910757 -0.97625804 0.650906 -0.7550043 0.09147038 -0.8872484 0.6250034

logits f4 [4, 40, 100]
00000000: d094 dfbc 9794 f4bd 8399 4a3e cc2e febd
00000010: 8456 dcbe ee6e 073e c67d 4abe 4d0b 57be
00000020: 54ea f43c dc0b 9dbc aa36 81be 9d18 52bd
00000030: 26b3 353e b6a8 68bd e93d fabd ff47 a13e
00000040: a042 43be e09e f3bd a0a9 d63e 2703 203e
00000050: 1661 19be e782 1ebd f4a4 a83e 5a07 54be
00000060: f938 313e 8c03 d4be fb6a 84be a0dc 87be
00000070: 0299 8cbe 5c00 60bc ff0b 7cbe a095 8e3c
00000080: 8c2b 9cbd 0cef 8a3e 1301 09be fc72 823d
00000090: cd88 98be 3205 943d 210e adbd 2830 963c
000000a0: 0609 4cbe 47a8 863e 2bbd 52bf 549d 8fbe
000000b0: 64f9 513d 929f 94be 38a8 0a3e 30db 24bd
000000c0: cc30 aabe 9f91 fe3e adad 463e 9e79 983e
000000d0: f873 65be 486e 313e bc6a 3dbe 934c cbbe
000000e0: 6611 2fbe bee4 323e c4fa 273e 986e 95bc
000000f0: a4f9 2abe a996 e53e 56f2 843e d05f 0dbf
00000100: e205 70be 150e 14be 3b16 e03e f607 b7bc
00000110: aca2 fb3c 8a03 bfbd bd82 80be 718d f53e
00000120: c8df 493c 72c3 8fbe 406a 78bc bdfc 203e
00000130: a057 cfbe c71d 37be 857e 1dbe 1805 bd3c
00000140: 1f6a 973d af51 16be f27c a53e a15f 03be
00000150: 7c47 73be c1ce 993d 25b6 bb3e 93ed 4c3f
00000160: 84fa f23d 8828 903d 9a71 a8bc 7ab3 93bd
00000170: 0dfc b23e f058 77be 4cf3 05be d1ba 573e
00000180: 62e2 f53d e065 8fbe 809d cfbd e7e6 b9be
00000190: 5f99 2abe 7652 62be aa9d 013e 3050 06bb
000001a0: 4810 a4be 002d 733d 927b e0bd 5a50 20bd
000001b0: 735b 14bd 48ae cf3c ff97 0cbd e9ea 58bc
000001c0: 0635 783d 95fb a6bd e477 d1bd ca2d 2b3e
000001d0: 4dbc 2cbe 6968 05be 7853 bd3e 686f 783c
000001e0: a811 a5bd 64c2 11be e48a bd3d 1049 99be
000001f0: 44c8 b43d 6591 0fbe 7992 a1be 8c8a 03be
00000200: 37a3 77be 7816 723d 45d3 89be be5f 7a3d
00000210: 1ceb d6bd 5eab 7b3e 1d76 59bd 9a5f 033e
00000220: 4818 dbbd caa4 eb3d a8d6 16be 84b5 9e3d
00000230: 2166 58be 62c9 8a3e 0641 03bf 2de0 6cbe
00000240: 48e5 8a3c 6666 07be bf37 bf3d 62f6 46bd
00000250: f45d 1fbe 89df 9c3e bc04 743e e07e 193e
00000260: 7c54 89be 929b 4d3e 3eff 35be c04f b4be
00000270: 2ab1 4e3d b498 4d3d aebf 0a3d 63f6 ed3d
00000280: c8d7 523c c8f2 d53e fb4a 343e ba17 cebe
00000290: 9a59 3bbe fcff 05be d25b c13e d404 cabd
000002a0: 8b79 d73d f81c ecbc 3058 8cbc 6bbe e13e
000002b0: 63f0 2d3d 8fca 24be 7840 a53c e06b c93d
000002c0: f2e4 86be a211 abbc 766c 90bd 901a 9c3d
000002d0: d85e 743e c7f5 c9bc 0fa6 753e c04b dabc
000002e0: ee51 39be 006b d93d 6aae 9c3e 2c2c fa3e
000002f0: 8c61 22bc c0ed 633c e51f dcbd 0f41 3fbe
00000300: 2e38 0f3e 37b6 e5bd 0ed9 6cbe ac5e 433e
00000310: 8002 ec3c b6db bbbd 1c98 7dbd 6c5e 93be
00000320: 44aa 6dbe 1557 62be c46d c33d 9453 ed3c
00000330: 9237 81be 1c9f 333d 9b3c 9abd a93a 133d
00000340: 0094 fdbc 1400 603d 3014 bf3d 24da d63c
00000350: e0a9 21ba 1c15 93bd c289 32bd c8d0 013d
00000360: 3b8f 1fbe e4c6 03be 01ad 963e 870c 8fbd
00000370: 9458 dbbc 3af8 1dbe 80f7 67bb 1220 9abe
00000380: b6db f23c 9aab 8fbc 3488 89be 0af6 56bd
00000390: 5968 40be 5cf8 903d e6e6 74be 642c ee3d
000003a0: 7ccd aabd ac3f 653e 6a36 763d d893 483e
000003b0: cab1 993c de1b fa3d 52b3 f4bd 58c8 993d
000003c0: 9040 5dbe 9833 733e e620 a3be b1e0 3bbe
000003d0: e0a4 043b 204f 39bd 2513 bf3d de36 c7bd
000003e0: 67f6 0bbd d949 3e3e b06a 513e 24b7 9d3d
000003f0: b333 4dbe c325 773e 7aca 39be b4a9 96be
-0.027292639 -0.11942404 0.19785123 -0.124112695 -0.43034756 0.1322591 -0.19774541 -0.21000405
0.029896893 -0.019170694 -0.25237018 -0.051293004 0.17744121 -0.05680152 -0.1221884 0.3150024
-0.19068384 -0.118955374 0.4192629 0.15626203 -0.14978442 -0.038699057 0.3293835 -0.2070593
0.1730689 -0.41408956 -0.2586287 -0.2653551 -0.27460486 -0.013671961 -0.24613951 0.017405331
-0.076254934 0.27135503 -0.13379316 0.06369588 -0.2979187 0.072275534 -0.084499605 0.01833351
-0.19925317 0.2630026 -0.823199 -0.2804972 0.051263228 -0.29027992 0.13540733 -0.040248096
-0.33240354 0.49720475 0.1940219 0.29780287 -0.2240752 0.17327225 -0.18497747 -0.3970686
-0.1709648 0.1747007 0.16404253 -0.018241212 -0.16696793 0.44841507 0.25966138 -0.55224323
-0.23439744 -0.14458497 0.4376696 -0.022342663 0.030717216 -0.09326847 -0.25099745 0.47959474
0.01232142 -0.280788 -0.015162051 0.15721412 -0.4049654 -0.17882453 -0.15380295 0.023073718
0.07393288 -0.14679597 0.32321888 -0.12829448 -0.23757738 0.07510138 0.36662403 0.8005001
0.11864188 0.07038981 -0.020561982 -0.07211967 0.34957924 -0.2415502 -0.13081092 0.21067359
0.1200607 -0.28007412 -0.101374626 -0.36308977 -0.16660069 -0.22101769 0.126578 -0.0020494573
-0.32043672 0.059369087 -0.10961069 -0.03913913 -0.036220025 0.025351658 -0.034324642 -0.013239601
0.060597442 -0.08153454 -0.102279454 0.16716686 -0.16868706 -0.1302811 0.36977744 0.01516328
-0.08060008 -0.1423431 0.09255007 -0.29938555 0.0882726 -0.14020307 -0.31557062 -0.1284582
-0.24183355 0.05910346 -0.26918998 0.061126463 -0.10494062 0.2457709 -0.053091157 0.12829438
-0.10697991 0.115060404 -0.14730322 0.07749465 -0.21132709 0.27106768 -0.5127109 -0.23132391
0.016955033 -0.13222656 0.093368046 -0.048574813 -0.15563184 0.30639294 0.23829931 0.14989805
-0.2682227 0.20078877 -0.17773148 -0.35217094 0.050461926 0.050194457 0.033874206 0.1161926
0.012868829 0.4178679 0.17606728 -0.40252477 -0.18295899 -0.13085932 0.37765366 -0.09864202
0.10521229 -0.028822407 -0.017131895 0.4409059 0.04246558 -0.16092895 0.020172343 0.09835029
-0.26346546 -0.020882431 -0.07051937 0.07622254 0.23864305 -0.024653329 0.23989128 -0.026647449
-0.1809766 0.10616112 0.30601817 0.48861825 -0.009910952 0.0139116645 -0.10748271 -0.18677162
0.13986275 -0.11216395 -0.23129675 0.19079083 0.028809786 -0.09172766 -0.06191264 -0.28782976
-0.23209482 -0.22103532 0.095424205 0.028970517 -0.2523771 0.04385291 -0.07531091 0.035944615
-0.030954361 0.054687575 0.09330022 0.026227064 -0.0006166976 -0.07181761 -0.043588407 0.03169325
-0.15581982 -0.1286884 0.29428867 -0.06984811 -0.026775636 -0.15426722 -0.0035395324 -0.30102593
0.029645782 -0.01753788 -0.26861727 -0.052480735 -0.18789805 0.07078621 -0.23916206 0.116295606
-0.08339974 0.2238757 0.060110487 0.19587648 0.018761534 0.122123465 -0.11948265 0.07508916
-0.2160666 0.2375015 -0.31861037 -0.18347432 0.0020239875 -0.045241475 0.093298234 -0.09727262
-0.034170534 0.18582858 0.20450854 0.07700947 -0.20039253 0.24135499 -0.18143645 -0.29426348

current_state f4 [3, 4, 64]
00000000: 4e61 60bf 9762 20bf 51dc aa3e aa1f fdbe
00000010: cae0 603f 63e5 473f 929b 393f 97f3 b6bd
00000020: f38b 0ebf 7714 0b3f 73d6 a43e a4ee 11bf
00000030: 7447 21bf 54db f2be 0a21 4f3f 60fa b0be
00000040: 8a63 e7be 906d 3cbf 585b 3a3e c26f 3d3d
00000050: 84cc 0dbf 422a 2bbf 7ec2 b9be 431b 63be
00000060: 0cd3 313d 7882 b2be 126a acbe d9d1 0d3f
00000070: d1ab d4be e139 183f 641e 103e a8ae 583f
00000080: 3f59 b5be 7376 f2be c188 c9be 5476 fd3d
00000090: 40c3 18bf e6c7 dd3e 3826 0bbe 5072 d03d
000000a0: b0e8 f73e eba2 78bf 669f a83d 8207 07bf
000000b0: e6a7 863e b45d cd3e f024 0f3f cfaf 54bf
000000c0: 9613 443f 42dc 403f 982b 073f a3d5 9abe
000000d0: 2e7d 9dbc 44b3 dd3d 7464 213f 6db7 123f
000000e0: 5032 e53b 9aad 4d3f ff94 c9be 2cc2 2e3e
000000f0: c71d b23e 1610 4c3f d200 10bf e689 1abf
00000100: 18b0 7cbd 88af afbe 70a7 0fbf d3bb 283f
00000110: ff4b a0be 3434 94be 9a18 453e f6c8 c9be
00000120: 7c0d 28bf 08e8 d13d 2e2d 31be f752 8fbe
00000130: e5af 68be fa41 143f 2a04 093f 7c06 58bd
00000140: 5c35 5ebe a81f bcbe 4621 cc3e 9805 283f
00000150: af41 dabe 465b 943d aa6a f2be dd59 1bbf
00000160: 40f2 81be 71a3 033f ba5b ecbe 62eb 2dbe
00000170: 29be 2cbd 0018 6ebd 2a60 f2be 9ef6 2fbd
00000180: c316 503e c603 b4bd 5fa5 b6be fe1f 323f
00000190: ac09 b0be 727f b33e 214b 433e 2093 143f
000001a0: 48e9 d33e 3b5b 07be a53e fcbe 7c1a 76be
000001b0: 9f5a 20bf 790d ddbe 15fd 563e 7860 0a3f
000001c0: 8d1b 2c3e 2daf 053f 2cba f0be 3bd1 793d
000001d0: e764 cf3e 53f6 743e 24c8 f63d 7cf3 503e
000001e0: 3fae c13e 34e2 8f3d 688d 29bd 96db d5be
000001f0: b901 54bf 8250 d3be e0ae f6bd e908 b2be
00000200: 0658 da3e cc13 f23e 628c f43e ab39 2cbf
00000210: 6286 813d d85a 253e ef09 1c3f f59f 023f
00000220: ae71 253e 583e 643f 2fba 803e cc46 c0be
00000230: 2736 25bf 320b 82be c6a3 d3be 0c22 603f
00000240: 3f16 8cbe 570b 583f 0bf5 4e3f 4251 183e
00000250: 5c23 533d e463 84be 720d d53d 6a6f 983e
00000260: 8147 1bbf 6e65 be3e d2d3 1d3f 75be 06bf
00000270: 47a5 bfbe 9c1b 903e 1662 0ebf 38e8 253f
00000280: 3fdc 873d ae98 1cbe 539c 183f a006 b23e
00000290: 9b9e 24bf 8cef 35be d4cf 133e b1c5 0bbf
000002a0: 3a78 223f e279 efbe a4d8 783e e543 84be
000002b0: 0af1 ed3d cf3e 3ebf 059c 07bf 9608 d7bc
000002c0: 306f 47bd 9735 07bf 6c31 efbe 25b8 94bc
000002d0: f1c7 4b3f 641e 1c3f a212 af3e eb10 d2bd
000002e0: 7561 31bf 9ffb 24bf f49b 9dbe 89ab 87bd
000002f0: c474 82be acf7 0f3d aace 15bf 006f 22be
00000300: 9497 fcbe 52b5 7f3c 44b5 863d 58ab 223f
00000310: 6f68 a7bd 31aa 8e3e 85a2 563f 099d 023f
00000320: af0d e83e 34e1 bd3e bd3d 12bf de3a 0c3f
00000330: bb06 6abc 0096 243f 8d1d 73be 5808 af3e
00000340: d68f 2b3e e838 063f 14b3 4b3f fcd6 b5be
00000350: eec1 b33e 0eeb a13e 415b e43d f359 2c3f
00000360: 0f2c a03e 34d1 24bf 00cd 6a3e acf6 29bf
00000370: f221 e43e 2d69 4a3f 9caf 993e 371b a93e
00000380: cae3 35bf 989b 0dbe 6499 863e ac51 a7bd
00000390: 243c 7bbe fd71 46bf f716 85be 8cad 8fbe
000003a0: 91fe bfbe 60f3 73be 4647 6a3d 3cae b0bd
000003b0: f3fd 15be 84a8 55bf 26ed 1fbd 7096 24bf
000003c0: add6 08bf 8678 39bf 7eea b93e f9c1 febc
000003d0: aa9c 22be 47c4 14bf dcd1 18bf de8b 2abf
000003e0: 52fc 6ebe 8e8d 21bf 9e69 da3e 468d 123f
000003f0: 553f d4bc 2115 61be 6877 14bf cd27 41be
-0.87648475 -0.62650436 0.33371213 -0.4943822 0.87843 0.7808439 0.72503006 -0.0893318
-0.55682296 0.543281 0.32194862 -0.5700476 -0.62999654 -0.4743296 0.8090979 -0.3456602
-0.4519313 -0.7360468 0.18198907 0.04624916 -0.5539019 -0.66861355 -0.36281198 -0.22178368
0.04341416 -0.34865165 -0.33674675 0.5539833 -0.41537336 0.59463316 0.14074093 0.84641504
-0.35419652 -0.47355995 -0.39362147 0.12376085 -0.5967293 0.43316573 -0.13588798 0.101780534
0.48419714 -0.97123593 0.08233528 -0.5274583 0.2629997 0.40110552 0.5591574 -0.8308076
0.76592386 0.75336087 0.52800894 -0.30241117 -0.01922473 0.10825208 0.63043904 0.57311136
0.006994523 0.8034302 -0.39371487 0.17066258 0.34788343 0.79712045 -0.5625125 -0.60366666
-0.061691374 -0.34313607 -0.56114864 0.65911597 -0.3130798 -0.28946078 0.19247666 -0.39411134
-0.65645576 0.102493346 -0.17302391 -0.27992985 -0.22723348 0.5791317 0.5352198 -0.05274056
-0.21700042 -0.36742902 0.39869136 0.65633535 -0.42628238 0.072439715 -0.47347003 -0.60683995
-0.25380135 0.51421267 -0.46163732 -0.16984323 -0.04217354 -0.058128357 -0.47338992 -0.0429598
0.20321183 -0.08789782 -0.35673043 0.69580066 -0.3438238 0.3505817 0.19071628 0.58036995
0.41388917 -0.13218395 -0.49266544 -0.2403354 -0.62638277 -0.4317434 0.2099498 0.5405345
0.16807385 0.5222042 -0.47017038 0.060990553 0.4050667 0.2392209 0.120498925 0.20405382
0.37828252 0.07025567 -0.04139462 -0.41769093 -0.8281513 -0.4127236 -0.120450735 -0.34772423
0.42645282 0.4728073 0.47763354 -0.67275494 0.063244596 0.16147935 0.6095266 0.51025325
0.16156647 0.8915763 0.25142047 -0.37554014 -0.64535755 -0.25399166 -0.41335887 0.8755195
-0.27360722 0.84392303 0.80842656 0.14874747 0.051547393 -0.2585746 0.10402955 0.29772502
-0.6065598 0.3718676 0.6165134 -0.52634364 -0.37430784 0.28146064 -0.5561842 0.6480746
0.066338055 -0.15292618 0.5961353 0.3477068 -0.6430451 -0.17767161 0.14434749 -0.5459853
0.634647 -0.46772677 0.24301392 -0.2583305 0.1161824 -0.7431459 -0.5297244 -0.026249211
-0.04869002 -0.52816147 -0.46717393 -0.018154213 0.7960196 0.6098387 0.34193903 -0.10257133
-0.6928933 -0.64446443 -0.30783045 -0.066245146 -0.2547971 0.035148308 -0.5851847 -0.15862656
-0.49334395 0.015607195 0.065775424 0.635427 -0.08174216 0.2786422 0.83841735 0.51020867
0.4532294 0.3708588 -0.57125455 0.54777324 -0.014283831 0.6429138 -0.23741741 0.34186053
0.16754088 0.5243058 0.79570127 -0.35515583 0.35108894 0.31624645 0.11150218 0.6732475
0.31283614 -0.6438172 0.22929764 -0.66392016 0.44557148 0.79066736 0.30016792 0.33028576
-0.71050704 -0.13828886 0.26288903 -0.081698745 -0.2453466 -0.7751768 -0.25994083 -0.28062093
-0.37498906 -0.23823309 0.057196878 -0.086269826 -0.14647655 -0.8346026 -0.03904452 -0.6429205
-0.5345257 -0.7244953 0.36311716 -0.031098353 -0.15880075 -0.58111995 -0.5969522 -0.6661967
-0.2333844 -0.6310662 0.42658705 0.57246816 -0.025909105 -0.21980716 -0.579947 -0.18862839

weight_u f4 [96, 64]
00000000: a2ea 02bd f5b3 ac3d 854a 5e3d 839a 3fbe
00000010: da65 753d 76f9 0bbd 3c38 f13d eecf 803d
00000020: 87b8 703d 4a93 24bc 8886 0f3e f272 f33c
00000030: 273a adbd 5601 4b3e 9c86 e23c ac90 eabd
00000040: fa05 fc3d 5be9 19bd 5401 11bd 3623 60be
00000050: ee82 df3c ef3e 653d 93b6 e3bd eec0 04be
00000060: d4e2 25bd 10db 0b3e 13d4 43bd 20b4 54bd
00000070: 1692 1f3e 32f4 603e d88b b2bd 9cd6 acbc
00000080: 38db 123e 3c68 1f3d 0b62 62bb 6bbd 7fbd
00000090: b179 303e 24f2 5f3c 8e22 0d3e ed14 883b
000000a0: 7060 1c3e c543 d73d 7999 15bc 9940 afbc
000000b0: 1302 adbc 6bb2 653d fc42 513e 98fe b13b
000000c0: 5587 d83d 24ca b93d f3bf 363e c4f0 e03d
000000d0: 8d24 7ebd f591 70bc 94b8 f53d 1526 6ebd
000000e0: 1f12 15bd de8c 5f3d d8e0 59bc 8088 193e
000000f0: 6c77 f3bd e7fb 843c 9086 c9bd 8e51 5c3d
00000100: 0a31 963d 9070 2abe 1138 9cbd 0eed 0b3d
00000110: 371e 613d 397d d13d cac7 243e f460 b0bc
00000120: ad18 6d3c 1f46 1c3d 2e53 083e 7157 f23d
00000130: e725 3e3c 9a1f bfbd b2f6 953d 67f4 953c
00000140: b850 963c fcee 14bc c53d b73d d367 2abd
00000150: 000c 2ebe 1683 553d 573b c3bd 44e0 df3c
00000160: f075 63bd 8ee2 68be d70e d7bc 4e54 8e3c
00000170: bccf 67bd 109a 9b3d 5628 bdbd 6c06 3abd
00000180: e898 fc3d 8ce1 943c f078 ee3d bb52 663d
00000190: 080d d13d f515 f6bd d8cd 533d 65f3 02be
000001a0: 83bb 2abd 14e0 863d fa81 853d 8e8a 503d
000001b0: 6ad5 0b3e 22d6 5abd 8695 083b b704 a13d
000001c0: f8fa cf3d 85ed efbd 194d f23d 66a7 b23d
000001d0: 4f31 44bd d20c 163d 3f16 73bc 3449 44bb
000001e0: a370 d3bc 5257 043e 3e86 01bb c5e5 793d
000001f0: cd68 ccbd 9d62 29be bbbf 9f3d a9ea 1b3e
00000200: 4094 9bbd 4a3c 493e 4705 953d 9577 b53b
00000210: 51b6 09be 6c96 c73c 72c4 013e d17c 6e3d
00000220: 5a71 8cbd 9cce 19be 193a 573c eb1a 0a3d
00000230: 1150 09be c959 7fbd 0a8c 8ebd f57f 9ebd
00000240: 07ea 50ba 60ea 07be 9520 fa3d e866 35bd
00000250: 3baf 43bd 4f9e a83b e161 b13d 4187 523e
00000260: 96e9 21be e899 a1bc dd17 32bd f340 1a3d
00000270: 8706 00be a304 3abe f317 b6bc 3a0d d9bd
00000280: e9cc ed3d bfb7 94bd 3c43 17be ab05 903d
00000290: 2502 72bc f5f6 c13d 96e7 97bd 3f96 123d
000002a0: 0564 d8bd 2602 96bc 5fa0 debc 8d06 67be
000002b0: bcc3 f73d ce37 c7bd e145 d13d 9a71 1bbe
000002c0: 97e1 d2bd 47ae 263d baae 9c3d b374 9dbc
000002d0: 4a73 f4bd 1e01 173d 2031 293d f2e4 0e3e
000002e0: b8a8 90bd c0d3 6b3b ae8b b1bd a6a7 35bd
000002f0: 435a 4ebe 7ed2 bcbd 29fe 2f3e 5d28 c4bd
00000300: 78d5 45be c7b4 d5bc 9bc7 a6bd bad8 4fbd
00000310: 69bc 93bd 0b98 54bc 00ee adbd 1685 da3b
00000320: 480f ac3b 00fe 1c3e 1063 293d 7b4f 0c3c
00000330: 4853 b73d 656c efbc 1d8f a23e c04c 853c
00000340: e1f5 2abe 64c3 47bd 0f8f 4fbd d91c c83d
00000350: 1124 dcbd dab8 983d 66e6 3d3c d899 453b
00000360: ca26 f93b ec72 3f3d 2acf 9bbc 118e 48bd
00000370: 6e89 113e 0c81 3b3e 9c08 bbbd d5e8 e439
00000380: 3e8a e03c d573 5d3e 3dc5 39bd 01ad 13bc
00000390: 76ba a93d 0729 68bc 7830 cabc 9067 573e
000003a0: 8742 d4bd cd1a e63c 1727 e7bd ec94 40be
000003b0: b006 f1bc 7ca2 6f3d 43f2 3b3c 20ac 24bd
000003c0: 264c 0abe 1b6b 32bc 797b d2bd 7537 513d
000003d0: 861e 483d 39ca fa3d b6d5 d13b c3f9 9e3d
000003e0: 1daf 69be 83b4 02be 3d52 f03d 7027 96bc
000003f0: 2429 edbc 73cd ff3c b228 b2bd 74f3 5dbc
-0.031962045 0.084327616 0.054270286 -0.18711285 0.059911586 -0.03417345 0.11778304 0.062896594
0.05876973 -0.010044882 0.14016163 0.029717896 -0.08458357 0.19824728 0.027652077 -0.11453375
0.123058274 -0.03757606 -0.035401657 -0.21888432 0.027284112 0.05596822 -0.11118808 -0.12964222
-0.040499523 0.13657784 -0.04780967 -0.051929593 0.15583071 0.21968153 -0.08718079 -0.021098427
0.14341438 0.038917765 -0.0034543301 -0.062436502 0.17233922 0.013668571 0.13782713 0.004152885
0.15271163 0.10510973 -0.009130829 -0.021393107 -0.021119153 0.056078356 0.20435709 0.0054319613
0.105726875 0.090717584 0.1784666 0.109834224 -0.062046576 -0.014683236 0.11998096 -0.058141787
-0.036394235 0.0545777 -0.013298236 0.14993477 -0.11888012 0.016233398 -0.09840119 0.053788714
0.07333572 -0.16644502 -0.07627881 0.03416162 0.054960456 0.102289625 0.16091838 -0.021530606
0.014471215 0.03815281 0.1331298 0.118330844 0.011605716 -0.093321994 0.07322444 0.018305017
0.018349037 -0.009090181 0.089473285 -0.04160292 -0.16996765 0.052126966 -0.095328026 0.027328618
-0.055532396 -0.22742674 -0.026252193 0.017374184 -0.056594595 0.075977445 -0.09236209 -0.04541628
0.12333852 0.018173955 0.11644161 0.05623124 0.10207564 -0.12015907 0.05170998 -0.1278816
-0.04168273 0.06585708 0.06518932 0.050913386 0.1365563 -0.05342687 0.0020841076 0.078622274
0.1015529 -0.11715225 0.118311115 0.08723335 -0.047898587 0.03663332 -0.014836847 -0.002995086
-0.025810545 0.12923935 -0.0019763852 0.06101014 -0.09980927 -0.16541524 0.078002416 0.15226234
-0.07596636 0.19651905 0.07276397 0.005537937 -0.13448454 0.024363719 0.12672594 0.058224503
-0.068575576 -0.15020221 0.01313641 0.033717077 -0.13409449 -0.062341485 -0.06960304 -0.077392496
-0.0007969443 -0.13273 0.12213246 -0.044287592 -0.047774535 0.005145825 0.08661247 0.20559408
-0.15811762 -0.019726709 -0.04347979 0.037659597 -0.1250249 -0.18165831 -0.022228217 -0.10598226
0.11611349 -0.07261609 -0.14771742 0.07032331 -0.014771019 0.094709314 -0.074172184 0.035787817
-0.10565952 -0.018311571 -0.02717608 -0.22561093 0.1209788 -0.09727441 0.102184065 -0.15180054
-0.10296934 0.040693548 0.07650514 -0.019220686 -0.11936052 0.0368663 0.041306615 0.13954523
-0.070634305 0.0035984367 -0.0866922 -0.044349335 -0.2015162 -0.09219836 0.17186798 -0.09578011
-0.19319713 -0.026087178 -0.081435405 -0.050743796 -0.07213671 -0.012975703 -0.084926605 0.006668697
0.005250845 0.15331268 0.04135424 0.0085638715 0.089514315 -0.029226491 0.31749812 0.016271949
-0.16695358 -0.048770323 -0.05067354 0.09771127 -0.107490666 0.07457133 0.011590576 0.0030151512
0.007603501 0.046740457 -0.019019682 -0.04896361 0.14212582 0.18310946 -0.091325015 0.00043661022
0.027409669 0.21626218 -0.045354117 -0.009013415 0.08287518 -0.014169938 -0.024681315 0.210356
-0.103642516 0.028088951 -0.11286753 -0.18806809 -0.029422134 0.058504567 0.011471334 -0.040203214
-0.13505611 -0.010889794 -0.10277457 0.05107828 0.048857234 0.12245602 0.00640365 0.07762482
-0.22820707 -0.12764172 0.11734436 -0.018329352 -0.028950281 0.031225896 -0.08699168 -0.013546813

bias_u f4 [1, 64]
00000000: 0000 0000 0000 0000 0000 0000 0000 0000
00000010: 0000 0000 0000 0000 0000 0000 0000 0000
00000020: 0000 0000 0000 0000 0000 0000 0000 0000
00000030: 0000 0000 0000 0000 0000 0000 0000 0000
00000040: 0000 0000 0000 0000 0000 0000 0000 0000
00000050: 0000 0000 0000 0000 0000 0000 0000 0000
00000060: 0000 0000 0000 0000 0000 0000 0000 0000
00000070: 0000 0000 0000 0000 0000 0000 0000 0000
00000080: 0000 0000 0000 0000 0000 0000 0000 0000
00000090: 0000 0000 0000 0000 0000 0000 0000 0000
000000a0: 0000 0000 0000 0000 0000 0000 0000 0000
000000b0: 0000 0000 0000 0000 0000 0000 0000 0000
000000c0: 0000 0000 0000 0000 0000 0000 0000 0000
000000d0: 0000 0000 0000 0000 0000 0000 0000 0000
000000e0: 0000 0000 0000 0000 0000 0000 0000 0000
000000f0: 0000 0000 0000 0000 0000 0000 0000 0000
0.0 0.0 0.0 0.0 0.0 0.0 0.0 0.0
0.0 0.0 0.0 0.0 0.0 0.0 0.0 0.0
0.0 0.0 0.0 0.0 0.0 0.0 0.0 0.0
0.0 0.0 0.0 0.0 0.0 0.0 0.0 0.0
0.0 0.0 0.0 0.0 0.0 0.0 0.0 0.0
0.0 0.0 0.0 0.0 0.0 0.0 0.0 0.0
0.0 0.0 0.0 0.0 0.0 0.0 0.0 0.0
0.0 0.0 0.0 0.0 0.0 0.0 0.0 0.0

weight_r f4 [96, 64]
00000000: 0f94 d03c fb6e 15be 9b0b 293d 65bb 813d
00000010: 4d59 bb3b fe88 13bd 4e54 dd3d c062 a9bd
00000020: 42b3 f33d 6651 babd d0fa 44bd 6f15 573e
00000030: 34e5 08be df9b 053d 117e babd 2ff6 a63c
00000040: f2ea 4a3d 1753 75bd 52c5 8abd c38c 1a3e
00000050: 0ea1 00be d6f5 1dbd f339 333d 07d8 e93c
00000060: 8f91 21bd 0d7e d63d 715f 12bd 944f c83c
00000070: 2143 283e 5c8f 9abd fe0d 95bd 435a a4bd
00000080: 6da4 3fbd 92a5 8d3d b909 993d e8a1 633d
00000090: b96f 19be 23c0 d13b be51 96bd 2039 2ebe
000000a0: 6372 5c3c b563 e8bd f4ae 8e3d 0f36 893d
000000b0: 5bde a2bb fdbe efbd 8d39 d0bd 701f a43b
000000c0: 6c03 f437 7750 d23d 23ab f1bb 6d51 8ebd
000000d0: 35a4 9bbd 3fab e83d 52cb a2bd a7e9 213d
000000e0: 06b9 18be c174 83bd 7a6b af3d 8274 363d
000000f0: 27a1 07be f7f4 453e 27d9 e2bd 5deb e2bd
00000100: a889 833d c1b7 c5bc 2b2d ea3c 9e26 55be
00000110: 8c3a 1dbe 14d0 6ebc 0ee2 84bd d827 a7bd
00000120: 0463 09be 1eb9 e43d e238 afbe 71c3 813e
00000130: 2845 c5bc 75a3 553b 158f 973c 0c78 c9bc
00000140: 2c0e 29be 6e3b b0bb 1b54 c4bd 5484 1c3d
00000150: dcd5 05bd 7791 f7bd 8f26 413e 7fc3 3c3d
00000160: edeb 82bd e81d 743d 0c2f 643d d591 083e
00000170: 63d2 5cbe 6bdb 97bd 3b66 13be 0dc3 4abe
00000180: 212c 9e3b 6302 a3bd e839 93bb 2bbf 05bd
00000190: 832a c33d 9125 f73d 1ca7 d6bd 5c2a d63b
000001a0: e139 413d 4386 d13d 5057 e3bd 7717 c5bd
000001b0: 6a4e c4bd 4747 e3bd df13 10bc 5973 02bd
000001c0: e420 a1bc 3ab5 17be 937f 2dbe d730 babd
000001d0: 97fe d8bd b26a 853d d856 18bc b16f f43d
000001e0: 26b8 cbbd 812c fc3d f120 6dbc 62c3 d0bd
000001f0: 3528 fe3c 5457 82bb 5b84 adbd d1a9 d4bd
00000200: 1a12 b23c 4c6f 563e 7de6 5cbe 0f18 833d
00000210: a1f9 353c a160 3f3d 3109 fe3d 73ca 143d
00000220: 5a10 9039 7991 b6bc 860d 0a3d 0693 c4bd
00000230: ef97 6f3c 3cc7 1d3d 6c74 b2bd da93 263d
00000240: 5255 e1bd 3ce7 553e d774 0cbd 8464 073c
00000250: 0693 9d3d 0f62 57be b4f6 c0bd 9ee2 8f3d
00000260: ad23 563e e0d2 a4bd 32fe 50be a573 863c
00000270: 3371 1b3d a72f f93d fe9a 3abe 8614 963d
00000280: 5167 04be 640c d4bd 10ad 45be f6e7 a3bd
00000290: 9eec 5a3d 3b52 9fbd 3210 183e e05d 1fbe
000002a0: 2595 a2bd 9bfb 453d 6b23 20be c1fe 86bd
000002b0: 62db ae3c 315a 4abe 1827 0bbe 3507 0abd
000002c0: 2d01 2a3e 7905 c8bc 9729 8b3c f053 12bc
000002d0: c8fd b0bd 7a18 a0bc fc98 a23d b030 f3bd
000002e0: 1280 323c 578b 8bbd 8bbc 0cbe 52e3 e1bc
000002f0: 7667 de3d 7efd 0abc d381 623a 3108 52bd
00000300: c85f 7fbd a7d6 f63d 7943 383e 77c7 8ebb
00000310: 4651 26bc 8455 9f3b 04cc 3b3e 2308 d63d
00000320: 65e4 01bd 000e 983d 761c 773d 8f0e 0a3e
00000330: b906 223d 11bb 143c f879 b73b 645a 013d
00000340: 4a6f 06be 8d16 01be 5725 0a3e b0db 55bd
00000350: e40f ecbc 9e1e 8e3d 5937 543e 281f 48bd
00000360: 695a 2ebe 3cb2 cebc 4e1e b03d c4f7 29be
00000370: 74b0 23bd f886 243d c528 c3bd cd05 153e
00000380: 740e c93d fa4a b43c 7297 f33b 511a a43d
00000390: 19d9 b7bb a707 e8bd 9b21 853d 4c26 223d
000003a0: 6dae 2cbe a313 ffbd b24b e1bd a94d 413e
000003b0: 7af3 813d 4354 c83b 34b6 c3bc 24e9 553e
000003c0: 10f4 8dbd 1059 21be 003e 083c 6ee6 24bd
000003d0: f02c 243e 6028 62bd b270 1a3d 964b d9bd
000003e0: 0aec 59be f484 40be 88c5 583d 8c27 063e
000003f0: e4fd 583d af1c 443e e327 673d 5d7a 21bd
0.025461225 -0.14593117 0.041270833 0.06334571 0.0057174326 -0.036019318 0.108070955 -0.08270788
0.11899425 -0.09097557 -0.048090756 0.2100427 -0.13368684 0.032619353 -0.091060765 0.020381061
0.049540468 -0.059893694 -0.06775917 0.15092759 -0.12561437 -0.038564526 0.043756437 0.028545393
-0.039445456 0.10473261 -0.03573555 0.024452008 0.16431858 -0.07546875 -0.072780594 -0.080250286
-0.046787668 0.06916346 0.074725576 0.055574328 -0.14984025 0.0064010783 -0.0733981 -0.17013979
0.013455006 -0.113471426 0.069669634 0.06699764 -0.0049703545 -0.1170635 -0.10167227 0.0050086305
2.908866e-05 0.10269254 -0.0073751374 -0.069491245 -0.075996794 0.113607876 -0.079489365 0.03952947
-0.14914331 -0.064187534 0.085654214 0.044544704 -0.13245068 0.19331728 -0.11076575 -0.11080048
0.0642274 -0.024135472 0.02858599 -0.20815513 -0.15354365 -0.014575977 -0.06488429 -0.081618965
-0.13416678 0.11168121 -0.34223086 0.25344422 -0.024080828 0.0032598649 0.018500844 -0.024593376
-0.16509312 -0.0053781783 -0.09586354 0.038212135 -0.032674655 -0.12088292 0.18862365 0.046084877
-0.063926555 0.059598833 0.05570893 0.1333688 -0.21564631 -0.074148975 -0.14394467 -0.19800968
0.004827038 -0.079594396 -0.004492987 -0.032653015 0.09529593 0.12067712 -0.10481092 0.0065358113
0.04717434 0.102306865 -0.11100638 -0.09623616 -0.09585269 -0.110975794 -0.0087938 -0.031848285
-0.019669004 -0.14815226 -0.16943197 -0.09091347 -0.10595434 0.06514491 -0.009298049 0.11935366
-0.09947233 0.12313176 -0.014473186 -0.10193516 0.031025032 -0.0039776955 -0.084725104 -0.103839524
0.021737147 0.20940894 -0.215723 0.06401073 0.011106879 0.046723012 0.12404097 0.036325883
0.00027478003 -0.022286164 0.033704303 -0.09598355 0.014623626 0.038520083 -0.08713612 0.040668346
-0.11002602 0.2088899 -0.034291115 0.008263711 0.07694058 -0.210335 -0.09422055 0.07025646
0.20912047 -0.08048034 -0.20409468 0.016412565 0.037949752 0.12167292 -0.18223187 0.07328133
-0.12930037 -0.10353926 -0.193043 -0.080032274 0.053448312 -0.07779356 0.14849928 -0.15563154
-0.07938603 0.048335653 -0.15638511 -0.06591559 0.021344844 -0.19760968 -0.13589132 -0.03369828
0.16602011 -0.024416672 0.016987605 -0.008931145 -0.08642155 -0.019542921 0.07939336 -0.11874521
0.010894792 -0.06813686 -0.13743798 -0.027574215 0.10859577 -0.008483289 0.0008640561 -0.051277343
-0.062347203 0.120526604 0.17994489 -0.004357274 -0.010151213 0.004862489 0.18339545 0.10450771
-0.031711955 0.07424545 0.060329877 0.13482116 0.039557192 0.009077803 0.0055992566 0.031580344
-0.13128391 -0.12606259 0.13490807 -0.052211463 -0.028816171 0.069394335 0.20724238 -0.048857838
-0.17026676 -0.025231473 0.0859953 -0.16598421 -0.0399632 0.04016778 -0.095292605 0.14552994
0.0981721 0.022008408 0.007433825 0.08012832 -0.005610597 -0.113295846 0.0650055 0.039587304
-0.16863413 -0.12454917 -0.11000766 0.18877281 0.063452676 0.0061135604 -0.023890592 0.20889717
-0.06931317 -0.15756631 0.008315563 -0.040258817 0.16032767 -0.055214286 0.03770513 -0.1061012
-0.21281448 -0.18800718 0.052922755 0.13101023 0.052976504 0.19151567 0.056434523 -0.039423335

bias_r f4 [1, 64]
00000000: 0000 0000 0000 0000 0000 0000 0000 0000
00000010: 0000 0000 0000 0000 0000 0000 0000 0000
00000020: 0000 0000 0000 0000 0000 0000 0000 0000
00000030: 0000 0000 0000 0000 0000 0000 0000 0000
00000040: 0000 0000 0000 0000 0000 0000 0000 0000
00000050: 0000 0000 0000 0000 0000 0000 0000 0000
00000060: 0000 0000 0000 0000 0000 0000 0000 0000
00000070: 0000 0000 0000 0000 0000 0000 0000 0000
00000080: 0000 0000 0000 0000 0000 0000 0000 0000
00000090: 0000 0000 0000 0000 0000 0000 0000 0000
000000a0: 0000 0000 0000 0000 0000 0000 0000 0000
000000b0: 0000 0000 0000 0000 0000 0000 0000 0000
000000c0: 0000 0000 0000 0000 0000 0000 0000 0000
000000d0: 0000 0000 0000 0000 0000 0000 0000 0000
000000e0: 0000 0000 0000 0000 0000 0000 0000 0000
000000f0: 0000 0000 0000 0000 0000 0000 0000 0000
0.0 0.0 0.0 0.0 0.0 0.0 0.0 0.0
0.0 0.0 0.0 0.0 0.0 0.0 0.0 0.0
0.0 0.0 0.0 0.0 0.0 0.0 0.0 0.0
0.0 0.0 0.0 0.0 0.0 0.0 0.0 0.0
0.0 0.0 0.0 0.0 0.0 0.0 0.0 0.0
0.0 0.0 0.0 0.0 0.0 0.0 0.0 0.0
0.0 0.0 0.0 0.0 0.0 0.0 0.0 0.0
0.0 0.0 0.0 0.0 0.0 0.0 0.0 0.0
